scripts/models/model_epoch_9.bin (torch, 4668 bytes, 2 tensors)

linear.weight f4 [2, 384]
-0.076220095 0.12207096 0.19432625 -0.058111697 0.13234405 -0.0042123175 0.11457992 -0.1300963
0.08857192 0.023260636 -0.12862557 0.16536732 -0.013659273 -0.041152608 -0.011175663 -0.018402142
-0.005558679 0.16445784 -0.06517428 -0.091941 -0.14231788 0.048493277 -0.19021915 0.034475062
-0.09035112 0.17957252 0.080032825 0.0608441 0.0039964607 -0.033513706 0.14810568 -0.044572134
-0.05999842 0.04645575 -0.14657938 0.09509006 -0.050336286 0.12091058 -0.054575 -0.09134711
-0.09816769 -0.14768161 -0.15483834 0.0015687767 0.0373835 -0.044717405 0.056523416 -0.13689902
-0.05155019 -0.039794784 -0.16999234 -0.08684579 0.02306736 -0.016199416 0.0070786914 0.120864846
0.09173813 0.04719602 0.023406856 -0.10703832 0.09354602 -0.080776796 -0.04921187 0.09434528
0.12760234 -0.16289109 0.013297787 0.08319633 -0.037369844 -0.10294058 0.12669826 0.022228576
0.088710666 -0.030736819 0.116521366 -0.11690075 0.023199415 0.020056257 0.037248824 0.05287993
0.073412746 0.037579264 -0.0074616754 0.10287426 0.024498433 0.025639134 -0.0057875714 -0.10396938
-0.10598267 -0.04436119 0.028790103 -0.05803358 -0.0543216 -0.11891551 0.024083434 0.006838466
0.0127406325 -0.10322623 -0.020573016 0.044514004 -0.008197941 -0.037579007 0.019946788 -0.0743061
0.104209304 -0.06602765 -0.028332442 -0.08379386 0.017786182 -0.08530955 -0.15469049 0.025080167
0.03206168 -0.061824452 -0.026394697 0.052931726 -0.053798836 0.012671676 -0.082440354 -0.114150554
-0.041486423 0.01728517 -0.06906718 0.09730044 0.10595334 -0.064495504 -0.029909145 0.050669875
0.05251131 -0.102380335 -0.07570591 0.059220828 -0.013521898 -0.066552006 -0.054624114 -0.095419884
0.019618474 0.106991045 0.12740354 0.14549734 0.11089646 0.077786036 0.01672617 0.0209233
-0.07227421 -0.008573624 0.1355961 -0.020010184 0.0077423095 0.012704693 0.09842462 0.071228996
-0.10913842 0.026949177 -0.031775195 -0.0059736553 -0.004825065 -0.10784301 0.0017315942 0.08648443
-0.05279074 -0.0068369564 -0.007430838 -0.02895091 0.016198142 -0.12508368 -0.027314445 0.044149414
-0.032845795 -0.068736166 -0.08588853 0.089698985 0.09404168 0.1606798 -0.043774966 0.019669848
-0.05873021 -0.05131187 0.111197144 -0.04323957 -0.040158417 -0.08295905 -0.0117486855 0.09191967
0.0015797245 -0.13052544 -0.08147358 -0.18196908 0.055482253 -0.019859586 -0.08393032 0.06686451
-0.12769178 -0.018341975 0.10116456 0.04837501 0.077622786 0.016224539 -0.0020868548 0.015201774
-0.04396785 0.07596405 0.097182326 0.038281985 -0.18268351 -0.0668848 0.03313896 -0.061476916
0.047764767 -0.07936581 -0.047763452 0.08392398 -0.07407628 0.07886569 0.04021857 -0.06912745
0.029712046 -0.045733295 -0.044131566 0.08727574 -0.04625774 0.08116469 0.055131845 -0.0153120225
0.025214484 -0.039717007 -0.057405915 -0.11746604 -0.043599248 0.11364982 -0.103042975 -0.19910839
0.018902425 0.14967063 -0.09748317 -0.057361495 -0.016850473 0.09410188 -0.053319946 -0.11105679
0.07401632 0.041166823 -0.117031105 0.061792564 0.06733592 0.19017163 -0.0732717 -0.07392363
0.020313414 0.043458823 -0.10831251 0.035578523 0.03914905 0.13190766 0.06964773 0.0051725633
00000000: 4819 9cbd 5700 fa3d 76fd 463e 8806 6ebd
00000010: 3385 073e 7b07 8abb e1a8 ea3d f737 05be
00000020: 3265 b53d 178d be3c 6cb6 03be 0d56 293e
00000030: 25cb 5fbc a38f 28bd 211a 37bc 17c0 96bc
00000040: 9425 b6bb a367 283e 187a 85bd 904b bcbd
00000050: c7bb 11be e3a0 463d cfc8 42be b935 0d3d
00000060: 020a b9bd dce1 373e 40e8 a33d aa37 793d
00000070: bef4 823b ab45 09bd 04a9 173e 4591 36bd
00000080: e7c0 75bd 6248 3e3d e818 16be 94be c23d
00000090: 6c2d 4ebd f79f f73d 098a 5fbd 3214 bbbd
000000a0: 240c c9bd d939 17be f18d 1ebe 699f cd3a
000000b0: 711f 193d 9929 37bd 1985 673d 422f 0cbe
000000c0: 4b26 53bd dbff 22bd 7912 2ebe 35dc b1bd
000000d0: c3f7 bc3c a3b4 84bc 5ef4 e73b fd87 f73d
000000e0: 33e1 bb3d 9d50 413d bcbf bf3c e836 dbbd
000000f0: 0e95 bf3d 4e6e a5bd 6392 49bd 1938 c13d
00000100: 30aa 023e eccc 26be f6de 593c d662 aa3d
00000110: 1f11 19bd 83d2 d2bd 30bd 013e b418 b63c
00000120: f0ad b53d c8cb fbbc c1a2 ee3d a969 efbd
00000130: b30c be3c 054d a43c 3992 183d a098 583d
00000140: 6c59 963d b7ec 193d 1281 f4bb bdaf d23d
00000150: f0b0 c83c 2909 d23c aba5 bdbb e6ed d4bd
00000160: 710d d9bd 14b4 35bd 39d9 eb3c 9fb4 6dbd
00000170: 5380 5ebd fa89 f3bd 9f4a c53c 3615 e03b
00000180: 16be 503c 4668 d3bd be88 a8bc 5154 363d
00000190: a850 06bc 72ec 19bd 7267 a33c cc2d 98bd
000001a0: b06b d53d 8139 87bd 7019 e8bc 1e9c abbd
000001b0: 54b4 913c c6b6 aebd 2f67 1ebe ec74 cd3c
000001c0: 1c53 033d a33b 7dbd b139 d8bc f0ce 583d
000001d0: 2b5c 5cbd dd9c 4f3c 7dd6 a8bd c4c7 e9bd
000001e0: abed 29bd a199 8d3c 1873 8dbd 7445 c73d
000001f0: 11fe d83d 3816 84bd 0604 f5bc 378b 4f3d
00000200: 1916 573d c8ac d1bd b30b 9bbd 8a91 723d
00000210: f38a 5dbc 6b4c 88bd 89bd 5fbd 806b c3bd
00000220: ecb6 a03c 1f1e db3d 1376 023e 41fd 143e
00000230: af1d e33d 494e 9f3d 5205 893c 5767 ab3c
00000240: 8004 94bd 6378 0cbc b4d9 0a3e 66ec a3bc
00000250: 33b3 fd3b 5827 503c d992 c93d 82e0 913d
00000260: f783 dfbd 85c4 dc3c b526 02bd a7be c3bb
00000270: 941b 9ebb ccdc dcbd a9f6 e23a c01e b13d
00000280: 1a3b 58bd 8c08 e0bb 637e f3bb 752a edbc
00000290: f7b1 843c f015 00be 8bc2 dfbc 04d6 343d
000002a0: 5089 06bd 8cc5 8cbd 53e6 afbd 1ab4 b73d
000002b0: ed98 c03d 3f89 243e 614d 33bd a922 a13c
000002c0: 178f 70bd 652c 52bd 54bb e33d fa1b 31bd
000002d0: 277d 24bd 6fe6 a9bd 8f7d 40bc 6140 bc3d
000002e0: c20e cf3a 76a8 05be 9fdb a6bd 1a56 3abe
000002f0: 5c41 633d 92b0 a2bc a9e3 abbd 43f0 883d
00000300: a2c1 02be e941 96bc 5d2f cf3d e024 463d
00000310: b2f8 9e3d 53e9 843c 9dc3 08bb dd10 793c
00000320: a217 34bd 0a93 9b3d 8707 c73d 92cd 1c3d
00000330: 6311 3bbe e6fa 88bd b8bc 073d 38cf 7bbd
00000340: fda4 433d 8b8a a2bd 9ca3 43bd 56e0 ab3d
00000350: 4eb5 97bd 5684 a13d 3abc 243d b192 8dbd
00000360: ad66 f33c d652 3bbd 4dc3 34bd a0bd b23d
00000370: c278 3dbd ac39 a63d eed1 613d 47df 7abc
00000380: 9b8e ce3c 4dae 22bd 7722 6bbd 0992 f0bd
00000390: 2095 32bd 3dc1 e83d 3208 d3bd 12e3 4bbe
000003a0: 42d9 9a3c 4243 193e 42a5 c7bd e3f3 6abd
000003b0: 010a 8abc 7db8 c03d 0466 5abd be71 e3bd
000003c0: de95 973d 8b9e 283d 01ae efbd 331a 7d3d
000003d0: 6ae7 893d 5abc 423e 790f 96bd 4665 97bd
000003e0: 5168 a63c e101 323d f3d2 ddbd c9ba 113d
000003f0: c15a 203d cd12 073e 78a3 8e3d 9b7e a93b

linear.bias f4 [2]
0.018138878 0.013881459
00000000: fc97 943c 0f6f 633c
