scripts/models/model_epoch_6.bin (torch, 4668 bytes, 2 tensors)

linear.weight f4 [2, 384]
00000000: a547 1abd 83f8 b33d eabd 193e ab69 27bd
00000010: 2c46 db3d 4b1e eabb 65fa 983d a3d4 cbbd
00000020: fa46 563d b3a2 cc3c 8459 b4bd 0dd7 013e
00000030: 6cb4 d839 fc2d 57bd 6758 84bc 25dc d5bb
00000040: 26d7 223b ba16 f63d d037 7abd bdec 9cbd
00000050: 504b e8bd b362 273d 3e3c 10be b9cf 153c
00000060: 4993 8cbd a3a5 003e 35cc 8e3d fbec 283d
00000070: b1ea 893c 6886 febc 8987 ee3d c247 9ebc
00000080: ce1b f7bc 7f65 213d c36d dcbd b375 623d
00000090: 0b93 55bd 767f b13d 9ce3 dbbc c5ff 4cbd
000000a0: 2213 6abd 4254 e5bd ae99 f3bd 0705 cf3a
000000b0: e4fd 2f3d 47d7 18bd 94a3 d43c d4ea f2bd
000000c0: cad5 58bd 4dca e8bc 08de 0dbe 038c 7abd
000000d0: 9ee6 f53c 882f 773b b967 623c fa3b 993d
000000e0: 50b8 543d 46f9 3f3d dcff d73c 2d11 a7bd
000000f0: e96c a53d dd2a 98bd 4455 47bd 9a74 603d
00000100: 6d29 db3d a251 01be eca9 a1ba 57e9 4e3d
00000110: 5893 15bd e33e afbd 9042 b43d 7e8b 5d3c
00000120: 7aad 673d 47c7 17bd 9b86 d23d fe26 b0bd
00000130: d3c4 d43c c14a d03c 00b6 dc3c 1151 b93c
00000140: 23d3 453d b1f1 bd3c 3365 3a3c 2113 763d
00000150: e85a 9a3c 26e0 d83c a061 1e3c ac88 68bd
00000160: 8a2e 8fbd 8ac9 fdbc 9859 ab3c 1944 29bd
00000170: be5e 53bd 9405 c9bd a450 d23b c0b6 863c
00000180: 367b 92bb 1178 90bd 3d6b 82bc 237d 7b3c
00000190: d061 45bc 4192 13bd 9c2c a03c d23d 86bd
000001a0: bbd5 a83d a0f7 24bd 2375 4cbc ef36 4dbd
000001b0: 9971 c13c 477c 49bd ed46 f4bd 00f2 763c
000001c0: 4a5b f03c e7b4 53bd d37d 0dbc c69b 323d
000001d0: 4253 32bd 529e e43c 3078 80bd 900a a9bd
000001e0: 49e4 2ebd 2330 d73c 6f3d 06bd e6a1 923d
000001f0: 1e2b 8f3d 96fa 1bbd 496c d9bc 378b 4f3d
00000200: 255a 553d 24c6 9abd cb70 44bd 7700 323d
00000210: a2fc 2ebc caba 16bd 0848 efbc 8d42 95bd
00000220: 1cb2 963c ef4a a93d 486c ba3d ddbc eb3d
00000230: 21c9 b43d 610c 643d d948 683c de6a 943c
00000240: 64fa 43bd 1b54 0ebc aa27 d43d 2f5e 00bd
00000250: 9773 a53c d4ea 093c 6321 9c3d b64e 643d
00000260: 4069 bdbd badc 313d 8845 19bc b7c1 893b
00000270: 6622 7abb 9e33 a4bd ea34 9f3b d54e 853d
00000280: 63ef 20bd e12e bd3a b50a 4e3c 33b1 98bc
00000290: 718f 903c 8180 babd fe5d 7dbc 79fa 0f3d
000002a0: 468b 47bc ace5 24bd b99d 2fbd b829 523d
000002b0: ac90 653d 9104 fc3d 3d92 09bd 0c65 c83c
000002c0: 6490 cdbc cafe 89bc 3ccf a73d 2e01 c4bc
000002d0: 35f5 4abc bb82 77bd 5c45 18bc 266a a53d
000002e0: fbf4 653c 8cfb d0bd ec18 50bd e836 0fbe
000002f0: 5e0d 133d b4ac c0bc d4cf 40bd 1e9b 1e3d
00000300: 0438 b8bd bd61 e93a 809b 6b3d f310 e73c
00000310: 64a6 293d 9ce2 4c3c e697 313c d6e7 c03a
00000320: bd5d 60bd 48be 5b3d 5a51 a23d 80fb ad3c
00000330: d55e 08be 3f56 78bd b2e5 8c3c 5e8f 5ebd
00000340: b786 303d 89b7 73bd 6b3f 39bd dd65 883d
00000350: 590b 6fbd 967b 393d fd18 173d e76d 03bd
00000360: f206 1d3c ac4d b9bc 29ff f8bc 21fc 903d
00000370: 8019 22bd 173a 763d bab9 bd3c 47df 7abc
00000380: 7fb7 ac3c 8439 03bd b12e 13bd 90fe b4bd
00000390: 0620 20bd 4a70 b13d a153 8bbd acd9 1abe
000003a0: c200 d23c e0ab 003e 0e4f 6cbd bb5f 5dbd
000003b0: 60ac 073c 07b7 843d 3b28 3ebd 4405 9dbd
000003c0: 7763 773d dc50 013d 084e a6bd 07a9 663d
000003d0: 2e50 753d f2ac 173e 0f96 71bd 449a 1fbd
000003e0: da2f 943c d0f9 313d 0aef 91bd cfa1 fa3b
000003f0: 7f22 063d 8d99 cc3d 07fb 533d 92fe f53b
-0.03766598 0.08787634 0.15013853 -0.040872257 0.107067436 -0.0071447245 0.07469634 -0.099526666
0.052313782 0.024979925 -0.08806136 0.12679692 0.00041333155 -0.05253409 -0.016155435 -0.0065264874
0.0024847477 0.120160535 -0.061088383 -0.07662342 -0.1134249 0.04086561 -0.1408548 0.009143763
-0.0686403 0.12563185 0.06972543 0.041241627 0.016835542 -0.03106995 0.11646945 -0.019321326
-0.030164625 0.039403435 -0.10763123 0.055288028 -0.052142184 0.08666889 -0.026841931 -0.05004861
-0.057147153 -0.111977115 -0.118945464 0.0015794345 0.04296674 -0.03731468 0.025956906 -0.11861196
-0.05293826 -0.028416777 -0.1385423 -0.06116868 0.030017193 0.003771754 0.013818675 0.07482143
0.051933587 0.046868585 0.02636712 -0.08157573 0.080774136 -0.074300505 -0.0486653 0.0547987
0.10701261 -0.12628797 -0.0012333966 0.0505155 -0.03651747 -0.085569166 0.08801758 0.013522027
0.056561925 -0.03705528 0.1027958 -0.08601187 0.02597276 0.02542627 0.026942253 0.022621663
0.04829706 0.023186537 0.011376667 0.060076836 0.018842176 0.02647407 0.00966683 -0.056770965
-0.069912985 -0.03097989 0.020916745 -0.04132471 -0.051604025 -0.09815517 0.0064183045 0.016444564
-0.0044702543 -0.07054151 -0.015920276 0.015349659 -0.012047246 -0.03602815 0.019552521 -0.0655476
0.08243891 -0.040275216 -0.012479099 -0.050101217 0.023613738 -0.049190786 -0.119275905 0.015072346
0.029340405 -0.051686194 -0.008635956 0.04360559 -0.043536432 0.027907524 -0.06272924 -0.08253968
-0.04269818 0.02626807 -0.03277343 0.07159786 0.06990646 -0.038080774 -0.026540892 0.050669875
0.05208792 -0.075573236 -0.04795913 0.043457475 -0.01068035 -0.03679923 -0.029209152 -0.07288084
0.018395476 0.082662456 0.09102684 0.11510632 0.08827425 0.055675868 0.0141775245 0.018117364
-0.047846213 -0.0086870445 0.10359128 -0.03133982 0.02019672 0.008417804 0.076235555 0.055739127
-0.092485905 0.043423392 -0.009354956 0.004204001 -0.0038167476 -0.08017658 0.004858603 0.06509177
-0.039290797 0.0014433527 0.012575795 -0.018639183 0.017646523 -0.091065414 -0.015464304 0.03515098
-0.0121792015 -0.040258095 -0.042875025 0.051309317 0.056046173 0.123055585 -0.03358673 0.024462245
-0.025093265 -0.016845126 0.08193824 -0.023926344 -0.0123875635 -0.06042741 -0.00929388 0.08076887
0.014035459 -0.10204229 -0.050805017 -0.13985789 0.03590142 -0.023519851 -0.0470732 0.03872215
-0.08995059 0.0017805618 0.057521343 0.028206324 0.041418448 0.0125052 0.010839438 0.001471753
-0.054776896 0.053648263 0.07925673 0.021238089 -0.13317426 -0.060629126 0.017199371 -0.054335944
0.043097224 -0.059501205 -0.045226496 0.06660054 -0.05836043 0.045283876 0.036889065 -0.032087233
0.009584175 -0.022620045 -0.030395107 0.0707934 -0.0395751 0.060113993 0.02315985 -0.0153120225
0.021083592 -0.032037273 -0.0359332 -0.088376164 -0.03909304 0.086639956 -0.0680306 -0.15122098
0.025635127 0.12565565 -0.05769258 -0.054046374 0.0082808435 0.06480222 -0.046425086 -0.0766702
0.06039759 0.031571254 -0.08120352 0.05631354 0.05989092 0.14812067 -0.058980998 -0.03896548
0.018089224 0.04345113 -0.07125671 0.0076486836 0.03274774 0.09990225 0.05175307 0.007507154

linear.bias f4 [2]
00000000: 604a 633c 55aa 943c
0.013872713 0.018147627
