scripts/models/model_epoch_8.bin (torch, 4668 bytes, 2 tensors)

linear.weight f4 [2, 384]
-0.063259825 0.11263333 0.17903239 -0.05193525 0.12507293 -0.004963262 0.10293294 -0.12000564
0.07601262 0.02248148 -0.11388736 0.15318453 -0.010641436 -0.04655905 -0.012064333 -0.015551935
-0.0026047095 0.15134615 -0.06465908 -0.085205294 -0.13101546 0.047714356 -0.17510153 0.0271003
-0.084528886 0.16210738 0.075062886 0.05431072 0.00724104 -0.03359657 0.13606243 -0.037706733
-0.05212548 0.046079416 -0.13362476 0.080784604 -0.047311116 0.10963275 -0.042721275 -0.07980468
-0.085895844 -0.13621853 -0.14402601 -0.00030768415 0.038076945 -0.041493442 0.04778678 -0.12977216
-0.0515509 -0.03521614 -0.15908574 -0.0787508 0.025135465 -0.011698474 0.007335343 0.10720773
0.07954995 0.04616139 0.027264174 -0.09688298 0.089438215 -0.07668129 -0.04847429 0.08192207
0.11995535 -0.15130937 0.008255266 0.071021535 -0.038019177 -0.09672695 0.11366906 0.01953606
0.07907003 -0.03336616 0.11218396 -0.10876292 0.023316618 0.022127422 0.03367069 0.04411321
0.06560395 0.03307016 -0.0018306007 0.09087441 0.02108544 0.026895612 -0.00067247375 -0.089291185
-0.09314704 -0.040138125 0.026252426 -0.052911714 -0.05311224 -0.11222872 0.020666067 0.011211449
0.007527008 -0.09216848 -0.020294663 0.03459037 -0.010213775 -0.036548786 0.020077743 -0.072084606
0.09641678 -0.055864085 -0.024318201 -0.073609814 0.017823922 -0.072830096 -0.14290495 0.018843854
0.028453164 -0.058113933 -0.020663882 0.049392436 -0.051608883 0.016494792 -0.07520946 -0.105617866
-0.03999284 0.024689993 -0.055723995 0.08938504 0.09212507 -0.058149874 -0.0273349 0.050669875
0.049096223 -0.092325576 -0.06888974 0.056259774 -0.014022695 -0.057053503 -0.047168728 -0.0856945
0.017850507 0.09875497 0.11578488 0.13308895 0.10208926 0.06979535 0.015014711 0.022199335
-0.06254986 -0.010218222 0.12463599 -0.021169858 0.011237961 0.011706269 0.093556695 0.06744357
-0.104266085 0.028879713 -0.025599472 -0.0046070567 -0.007987046 -0.10043081 0.0066790264 0.078172944
-0.045911517 -0.0070821675 -0.0019576955 -0.027841061 0.019217484 -0.11257648 -0.024655767 0.04146852
-0.027816864 -0.058050398 -0.07434126 0.078478485 0.08165145 0.14982373 -0.039095987 0.023538725
-0.04518666 -0.037443668 0.10202284 -0.034571942 -0.03160129 -0.07415211 -0.01227477 0.08783502
0.0053554163 -0.12063592 -0.07055418 -0.17019683 0.04783738 -0.019936308 -0.07332363 0.056794208
-0.11519858 -0.013097363 0.087039225 0.040752284 0.064848684 0.011542993 -0.00016400519 0.007256253
-0.047110304 0.07323704 0.088902146 0.03330455 -0.16885704 -0.063883245 0.029583087 -0.060192496
0.047109257 -0.07114612 -0.0449854 0.076452956 -0.06906629 0.068687454 0.040289663 -0.057708
0.025016181 -0.038231835 -0.038409702 0.08335032 -0.044416633 0.07205489 0.04643448 -0.0153120225
0.02527085 -0.037687313 -0.04900112 -0.10760167 -0.043706395 0.10625613 -0.09065766 -0.18412891
0.020598447 0.14390169 -0.08394611 -0.05790757 -0.009520324 0.08677601 -0.048574217 -0.098124966
0.06929097 0.0394502 -0.10702119 0.060914144 0.06451363 0.17631157 -0.06642404 -0.06503094
0.01839051 0.043433115 -0.09701653 0.028730555 0.037618227 0.11982166 0.064502575 0.009134784
00000000: 5e8e 81bd 4eac e63d 4454 373e 0fba 54bd
00000010: 1e13 003e dca2 a2bb 81ce d23d 84c5 f5bd
00000020: 81ac 9b3d 152b b83c c73d e9bd 68dc 1c3e
00000030: 6b59 2ebc b4b4 3ebd 7ba9 45bc 8bcd 7ebc
00000040: c6b3 2abb 7cfa 1a3e fb6b 84bd 1d80 aebd
00000050: eb28 06be 2170 433d d14d 33be 7301 de3c
00000060: 7b1d adbd 7aff 253e 92ba 993d eb74 5e3d
00000070: 3f46 ed3b 8f9c 09bd f353 0b3e 6072 1abd
00000080: 8781 55bd c5bd 3c3d eed4 08be 6672 a53d
00000090: 4dc9 41bd 2387 e03d 81fc 2ebd a370 a3bd
000000a0: 29ea afbd df7c 0bbe 8e7b 13be ab50 a1b9
000000b0: 92f6 1b3d 07f5 29bd 12bc 433d fee2 04be
000000c0: 0927 53bd cd3e 10bd 5fe7 22be 1948 a1bd
000000d0: e4e8 cd3c f5aa 3fbc 515d f03b ba8f db3d
000000e0: 16eb a23d ba13 3d3d 1e59 df3c 956a c6bd
000000f0: 622b b73d 150b 9dbd fa8c 46bd c2c6 a73d
00000100: 27ab f53d d8f0 1abe 1841 073c bd73 913d
00000110: ffb9 1bbd c718 c6bd 53cb e83d 160a a03c
00000120: 78ef a13d f4aa 08bd b4c0 e53d 18bf debd
00000130: 7e02 bf3c 9144 b53c 47ea 093d 0eb0 343d
00000140: 5d5b 863d 9374 073d c4f0 efba 5d1c ba3d
00000150: 5fbb ac3c 3054 dc3c f348 30ba 4cde b6bd
00000160: e0c3 bebd e067 24bd 540f d73c f4b9 58bd
00000170: 388c 59bd 2cd8 e5bd e24b a93c 3ab0 373c
00000180: 1fa5 f63b d4c2 bcbd fe40 a6bc a2ae 0d3d
00000190: ad57 27bc 2eb4 15bd 147a a43c 18a1 93bd
000001a0: 2976 c53d bdd1 64bd f736 c7bc bec0 96bd
000001b0: 7903 923c f227 95bd ad55 12be 6d5e 9a3c
000001c0: 9c16 e93c e008 6ebd 4d47 a9bc b94f 4a3d
000001d0: d663 53bd 1620 873c 6b07 9abd 2e4e d8bd
000001e0: 88cf 23bd ab42 ca3c d83e 64bd 810f b73d
000001f0: 12ac bc3d 902e 6ebd 71ed dfbc 378b 4f3d
00000200: 1f19 493d 3115 bdbd 1016 8dbd a670 663d
00000210: 72bf 65bc efb0 69bd ff33 41bd 9980 afbd
00000220: 3a3b 923c 0c40 ca3d a020 ed3d 7848 083e
00000230: 2d14 d13d ddf0 8e3d 4300 763c 61db b53c
00000240: 241a 80bd 546a 27bc 2741 ff3d 696c adbc
00000250: 6d1f 383c a7cb 3f3c a79a bf3d db1f 8a3d
00000260: 7589 d5bd 2695 ec3c fcb5 d1bc cbf6 96bb
00000270: 19dc 02bc abae cdbd bcdb da3b 2319 a03d
00000280: b70d 3cbd 8711 e8bb ae4c 00bb f012 e4bc
00000290: fc6d 9d3c 7f8e e6bd e4fa c9bc e5da 293d
000002a0: 31e0 e3bc 41c6 6dbd 3b40 98bd 54b9 a03d
000002b0: e038 a73d 646b 193e 1d23 20bd 49d4 c03c
000002c0: a615 39bd 885e 19bd 5af1 d03d 4f9b 0dbd
000002d0: 5b70 01bd 10dd 97bd 1e1c 49bc d9e2 b33d
000002e0: 7d7c af3b f70f f7bd b67e 90bd 1448 2ebe
000002f0: 21f1 433d 7851 a3bc b32a 96bd 0ba1 683d
00000300: 3ced ebbd 5296 56bc 9f41 b23d deeb 263d
00000310: 63cf 843d d21e 3d3c cff8 2bb9 ddc5 ed3b
00000320: bcf6 40bd 4dfd 953d 5412 b63d 5a6a 083d
00000330: dce8 2cbe 38d5 82bd 3b58 f23c 688c 76bd
00000340: a3f5 403d 0fb5 91bd 9c42 38bd 5e93 9c3d
00000350: a172 8dbd 02ac 8c3d c606 253d 395f 6cbd
00000360: bcee cc3c fc98 1cbd 7e53 1dbd 93b3 aa3d
00000370: 37ee 35bd 8491 933d 1532 3e3d 47df 7abc
00000380: d004 cf3c 035e 1abd 66b5 48bd 445e dcbd
00000390: 7a05 33bd d09c d93d b9aa b9bd 4a8c 3cbe
000003a0: 13be a83c f75a 133e f0eb abbd 7d30 6dbd
000003b0: 22fb 1bbc 9fb7 b13d c2f5 46bd bef5 c8bd
000003c0: 6de8 8d3d 8896 213d ed2d dbbd 1c81 793d
000003d0: b91f 843d 058b 343e 5409 88bd f12e 85bd
000003e0: b2a7 963c ece6 313d 9ab0 c6bd 575c eb3c
000003f0: 9215 1a3d 0f65 f53d ed19 843d 10aa 153c

linear.bias f4 [2]
0.015072075 0.016948262
00000000: ddf0 763c 15d7 8a3c
