scripts/models/model_epoch_4.bin (torch, 4668 bytes, 2 tensors)

linear.weight f4 [2, 384]
00000000: 9429 58bc 677c 8c3d afe6 ed3d 14a9 2ebd
00000010: e330 aa3d ea77 13bc 8218 423d 4c52 99bd
00000020: 81ec e53c f45a c93c 09ac 70bd 2ebb d13d
00000030: 1efa 0b3a c34b 4dbd cab4 d4bc 688b 86ba
00000040: 99d2 bb39 9677 b43d d625 5dbd aa17 6dbd
00000050: 28d0 c2bd 4f73 173d 1b50 d8bd 4f01 40bc
00000060: 403e 5abd 416d ba3d cf12 653d 4b42 ad3c
00000070: 4b78 e83c c97a 12bd d2f2 c93d b6e2 3b3a
00000080: 017b 4dbc ac90 013d 74f2 a9bd c27d c53c
00000090: 78d0 3fbd 7222 863d 9fad a5b9 dd9e 9abc
000000a0: 8eff e9bc 758d a9bd 6001 c1bd 939b 5fba
000000b0: 92ee 353d f23f 04bd 4191 db3b 5e19 cdbd
000000c0: bc9c 5cbd ae2e a9bc bfc9 eabd 8997 1abd
000000d0: 74fb f43c fe7c b43c 91f6 a93c 621a 2b3d
000000e0: 1db7 aa3c 3536 423d 7d84 b23c 869e 6fbd
000000f0: da0a 823d 7314 74bd 0107 41bd f399 c93c
00000100: fcf0 c23d c196 c3bd af9c b7bc 4b03 a53c
00000110: 484a 0bbd 8358 93bd fd17 833d 4a39 d33a
00000120: 1f8b 0e3d 60eb 2abd dae5 b33d 03ca 8abd
00000130: f285 ea3c 70ce f13c 2f4a a43c 8de0 98bb
00000140: 00ab 053d 00e0 7f3c 96a4 bc3c 1b3f 083d
00000150: 66e0 a73c ff9e d63c 064f 553c 38df b4bc
00000160: 33c3 3ebd 6019 b2bc 5c00 a53c 51a9 f0bc
00000170: 3cd2 60bd d40a a1bd 2aad e33a efc4 aa3c
00000180: ad6b 87bc 8ad8 3dbd 7ef2 84bc a6ae 29bb
00000190: dc90 aabb e328 23bd 1749 593c 76bc 6fbd
000001a0: 0d1b 843d 0080 e5bc 8914 7b3b 253b e3bc
000001b0: 9bf4 a43c aad9 9ebc 6177 bbbd c766 d63b
000001c0: 8b0f 063d 6f76 34bd e4b3 2a3c 86af 043d
000001d0: f0e1 2cbd 2b78 203d 1838 27bd 2af4 85bd
000001e0: 5cf2 2fbd 63c9 f33c ebe6 8cbc d291 483d
000001f0: d33f 2f3d 0c31 59bc 9eb6 cdbc 378b 4f3d
00000200: 65e4 403d dc3a 66bd 19aa e5bc 7477 053d
00000210: 5f0c 95bc 5dad 2dbc 0e2f 59bc e33f 6cbd
00000220: b5c9 b83c a40f 883d b9d8 7b3d 8090 bc3d
00000230: 0e5d 813d 7168 213d b9f4 343c c630 693c
00000240: 1eb0 0dbd 25b5 1fbc a3e2 a63d 5ece 33bd
00000250: e3df fb3c 8b7d 343b ac94 613d b022 4f3d
00000260: 1a2a 96bd 6998 433d e99e adbb a8e4 373c
00000270: 84e9 9bbb b1e3 82bd 7dfa c13b ec9a 4b3d
00000280: bae4 eabc e85d 3f3b 7af7 a73c 9c00 14bc
00000290: cdbe 833c e5df 88bd e7d2 24bc 61fa 163d
000002a0: 0511 ff3b 21cf 82bc 5f6f 6cbc 048c cb3c
000002b0: d033 123d d1ac c03d 21c5 d6bc 2296 f93c
000002c0: 4375 c7bb d977 4cba 4bec 8b3d 7815 14bc
000002d0: 3d8d 9c3a e0cc 3dbd d55a edbb 2eaa 943d
000002e0: ff23 a23c 6535 a5bd 457e d5bc 4968 d7bd
000002f0: 77c3 e23c 11ec eabc 6035 adbc e792 9f3c
00000300: 6d68 7fbd 2534 693c baf2 c23c 461a 0d3c
00000310: d3e8 533c 50eb 823c 1e17 783c c125 57bc
00000320: 08cd 45bd 421c 163d 8c29 843d 591d 4a3c
00000330: 74ea cebd 0031 73bd 6569 bc3a 4be8 46bd
00000340: e6f2 1b3d c295 35bd a66b 2ebd 951d 723d
00000350: 0ec2 3fbd 7b5d bf3c 55d5 2c3d 11d7 26bc
00000360: 601e 62bb a947 34bc 9739 67bc 9517 873d
00000370: 447a 08bd 9f43 243d 6105 a8ba 47df 7abc
00000380: ae2e 683c d239 debc f958 b9bc 6d1d 91bd
00000390: 89bb 1abd 730d 8e3d 40a8 1fbd ba18 efbd
000003a0: cbaa 0c3d ecc3 e33d 8d55 c0bc fe2e 36bd
000003b0: 949a bb3c c4b2 273d 05a5 25bd a157 72bd
000003c0: dc06 323d 7a59 ab3c 9093 58bd 24a5 513d
000003d0: 8901 723d d6c8 f83d cbc2 47bd 946f 1cbc
000003e0: 272e 853c 1799 393d a272 55bd 912a 5abc
000003f0: f7bb 0e3d 3f29 9d3d d778 183d b9ca ca3b
-0.013193507 0.06859665 0.11616265 -0.042641714 0.08310106 -0.009000758 0.047386654 -0.074864
0.028066875 0.024579503 -0.058757816 0.1024078 0.00053396996 -0.05012108 -0.025965113 -0.0010264935
0.00035824327 0.08811872 -0.05399116 -0.057883896 -0.09512359 0.0369752 -0.10562154 -0.011719062
-0.053282022 0.0910287 0.05592614 0.021149775 0.028377673 -0.03576163 0.098607674 0.00071672664
-0.012541533 0.03163211 -0.082981974 0.024107818 -0.04682967 0.06549539 -0.0003160061 -0.01887458
-0.02856424 -0.08278934 -0.094240904 -0.0008529957 0.04441697 -0.032287546 0.006700665 -0.10014604
-0.05386041 -0.020652141 -0.11464261 -0.03774217 0.029905058 0.022032257 0.020747455 0.041773207
0.020839268 0.047414977 0.021791691 -0.05850079 0.06349726 -0.059589814 -0.04712582 0.024609542
0.0951862 -0.095502384 -0.02241358 0.020143172 -0.034006387 -0.07194617 0.0640106 0.0016115096
0.034800645 -0.041728377 0.08784075 -0.06776812 0.028628323 0.029517382 0.020054905 -0.0046654404
0.03263378 0.015617371 0.0230277 0.033263307 0.020492744 0.026198862 0.013019329 -0.022079095
-0.046572875 -0.021740615 0.020141773 -0.029377611 -0.054887995 -0.078633934 0.0017370332 0.020845858
-0.016530836 -0.046349086 -0.01622891 -0.0025891452 -0.005205257 -0.039833914 0.013262055 -0.05852934
0.06450472 -0.028015137 0.00383118 -0.027738163 0.020136168 -0.0193909 -0.09153629 0.0065430137
0.032729667 -0.04405826 0.010418866 0.032393955 -0.04220766 0.0391771 -0.04082498 -0.06540711
-0.04295574 0.029759115 -0.017199954 0.04896719 0.042785477 -0.013256323 -0.025111493 0.050669875
0.047092814 -0.056208476 -0.02803521 0.032584623 -0.018194376 -0.010600415 -0.013255848 -0.057678115
0.022557119 0.06643608 0.06148598 0.09207249 0.06316577 0.039406244 0.011044675 0.01423282
-0.034591787 -0.009747778 0.08148696 -0.04389798 0.030746406 0.002754065 0.055073425 0.05057019
-0.07332249 0.04775277 -0.0052984846 0.0112239495 -0.004758062 -0.06391085 0.005919753 0.049708292
-0.028673518 0.002920026 0.020503748 -0.009033348 0.016082192 -0.066833295 -0.010060049 0.036859874
0.0077840113 -0.015967907 -0.01443085 0.024847038 0.035693944 0.09407962 -0.026217045 0.030467097
-0.0060869767 -0.0007799841 0.06832179 -0.009038322 0.0011943948 -0.046337962 -0.007243494 0.07259022
0.019792555 -0.08066825 -0.026061187 -0.10517938 0.027681096 -0.028677018 -0.021143615 0.019479228
-0.062355448 0.014233624 0.023797382 0.008612221 0.012933928 0.015981346 0.01514223 -0.01313156
-0.048291236 0.036648043 0.06453237 0.012336099 -0.10103312 -0.059372902 0.0014374672 -0.048561376
0.038073443 -0.044332273 -0.04258313 0.059110243 -0.046815924 0.023360005 0.042195637 -0.010183112
-0.0034502968 -0.011003413 -0.014112852 0.06596295 -0.033319727 0.04010355 -0.0012818986 -0.0153120225
0.014171286 -0.02712718 -0.022625433 -0.07085691 -0.037776504 0.06936159 -0.038978815 -0.11674638
0.03434257 0.111213535 -0.023478294 -0.04447841 0.022900857 0.04094197 -0.040440578 -0.0591656
0.043463573 0.02091669 -0.0528751 0.05118288 0.059083495 0.121476814 -0.048769753 -0.009548087
0.016257359 0.045312013 -0.052111275 -0.013315813 0.034847226 0.07673883 0.037224617 0.006188717

linear.bias f4 [2]
00000000: e327 2a3c 933b b13c
0.010385486 0.021634853
