scripts/models/model_epoch_5.bin (torch, 4668 bytes, 2 tensors)

linear.weight f4 [2, 384]
000000 25 80 c7 bc 6e 6e a2 3d 08 d4 07 3e 2d 4d 27 bd
       -0.024353096 0.07931219 0.13264477 -0.040845085
000010 e4 8b c3 3d 75 22 01 bc ee 98 7e 3d b5 67 b2 bd
       0.095481664 -0.00788175 0.062157564 -0.08711187
000020 90 6d 23 3d d7 b5 cf 3c 3f 43 96 bd 5e 5f e8 3d
       0.03989941 0.025355263 -0.07337045 0.11346315
000030 c1 26 1c 39 23 66 4e bd e8 75 a5 bc 88 38 65 bb
       0.00014891756 -0.050390374 -0.020197824 -0.0034976322
000040 44 e4 df 3a 40 65 d3 3d 3f 03 69 bd 07 dc 89 bd
       0.0017081578 0.10322046 -0.05688786 -0.0673142
000050 82 1e da bd 4e 3f 21 3d 32 38 fb bd e3 4c 93 ba
       -0.1065035 0.039367013 -0.12266578 -0.0011238124
000060 b0 23 75 bd 1a 57 de 3d b3 3c 85 3d 99 5b fe 3c
       -0.059848487 0.10856457 0.06505718 0.031049537
000070 6a 05 b2 3c 6a 3c 04 bd 19 0f de 3d 7b 9d 1d bc
       0.021731097 -0.032284178 0.108427234 -0.009620066
000080 80 00 b3 bc 6b 69 0c 3d db 4a c1 bd 9f f6 23 3d
       -0.021850824 0.034280222 -0.09438106 0.040030118
000090 e1 de 50 bd ff a2 99 3d 29 d9 73 bc 36 7f 0e bd
       -0.050993804 0.07501792 -0.014883318 -0.034789287
0000a0 6c 34 32 bd 29 bd c8 bd 2a e2 d9 bd 81 23 ae 3a
       -0.043507025 -0.098017044 -0.106388405 0.0013285727
0000b0 82 43 2e 3d bd dd 17 bd 4c 2e 86 3c 98 4f e1 bd
       0.04254485 -0.0370767 0.016379498 -0.110015094
0000c0 2c ad 5d bd 3d e5 cb bc ae 93 00 be 87 b4 4a bd
       -0.054120228 -0.024889583 -0.12556335 -0.04948857
0000d0 dc 1a f7 3c aa 8a 5a 3c 9c ef 8a 3c 78 7b 6a 3d
       0.030164175 0.013338724 0.016959958 0.057246655
0000e0 0b 0a 13 3d ce 58 41 3d 8a e7 c6 3c 61 6f 8f bd
       0.03589825 0.04720383 0.024280328 -0.07003666
0000f0 87 78 93 3d 5d c8 87 bd af 96 42 bd 26 cd 1e 3d
       0.07200723 -0.06630013 -0.047506984 0.038769864
000100 dc 93 ce 3d e9 da e0 bd a9 08 43 bc 21 8d 10 3d
       0.10086796 -0.10979254 -0.01190392 0.03529084
000110 0e 97 12 bd 3d 3e a3 bd fd 1d 9f 3d a0 39 f7 3b
       -0.03578859 -0.079708554 0.07769392 0.007544711
000120 b2 87 3e 3d 0e 01 27 bd ea 5d c2 3d 42 ba 9a bd
       0.046516128 -0.04077249 0.09490569 -0.07555057
000130 94 9d de 3c 9a 0e d5 3c 86 dd bf 3c a1 db 05 3c
       0.027174748 0.02600794 0.02342106 0.008170039
000140 7c 61 28 3d c6 43 a0 3c ee f5 8a 3c 28 55 3d 3d
       0.041108593 0.019563567 0.016962972 0.04622379
000150 b6 4c a4 3c 02 dc db 3c 9e 90 3a 3c e4 e3 1f bd
       0.02005611 0.026838306 0.0113870185 -0.039035693
000160 72 81 73 bd e5 91 c7 bc 04 92 a7 3c 95 51 0e bd
       -0.05944962 -0.02436156 0.020455368 -0.03474577
000170 f2 c5 56 bd b8 79 b6 bd f6 17 62 3b fd 95 94 3c
       -0.05243487 -0.08909935 0.0034499145 0.018137926
000180 62 4d 30 bc cd 72 6e bd d8 82 63 bc 9c a9 a3 3b
       -0.010760637 -0.05821495 -0.013886176 0.0049945842
000190 96 03 16 bc 16 a1 1e bd 8c a6 88 3c 14 b2 7a bd
       -0.009156128 -0.038727842 0.016680978 -0.061204985
0001a0 64 82 95 3d 7f 6b 09 bd 5b 4b a5 bb ba a3 21 bd
       0.07300261 -0.033549782 -0.0050443835 -0.039462782
0001b0 bd 85 ac 3c e6 bb 0b bd 92 73 d9 bd 80 34 37 3c
       0.021059865 -0.03411474 -0.106177464 0.011181951
0001c0 8b 00 fd 3c ac ec 3f bd e3 b9 32 3a bb e3 20 3d
       0.030884048 -0.046856567 0.00068178604 0.03927968
0001d0 2e da 2c bd f5 47 0d 3d 33 a4 56 bd a8 47 96 bd
       -0.04220026 0.03449245 -0.052402686 -0.07337886
0001e0 4b e1 29 bd 7a 6d dd 3c b5 2e c5 bc 94 2d 74 3d
       -0.04147462 0.027029742 -0.024070123 0.05961378
0001f0 4d ce 6b 3d d4 1f cd bc 38 1d d2 bc 37 8b 4f 3d
       0.05756979 -0.02503959 -0.025648698 0.050669875
000200 16 a4 4f 3d e2 4c 89 bd c3 15 1d bd 7b a6 1b 3d
       0.050693594 -0.06704117 -0.03835083 0.038000565
000210 56 b3 58 bc f2 5f bb bc e5 f8 b2 bc 76 75 85 bd
       -0.013226351 -0.022872899 -0.021847198 -0.065165445
000220 c3 f9 ab 3c 55 94 98 3d 28 e2 9d 3d 4a 29 d4 3d
       0.02099312 0.07450167 0.077091515 0.10359438
000230 54 de 9d 3d d6 0d 44 3d c5 d8 48 3c 72 1a 82 3c
       0.07708421 0.047864757 0.012258713 0.01588175
000240 d8 14 2d bd 40 4f 12 bc e8 d0 bb 3d 4d db 19 bd
       -0.042256206 -0.0089300275 0.09170705 -0.037562657
000250 f8 60 c1 3c be ce dc 3b 9c 03 87 3d 5c 91 5b 3d
       0.023605809 0.006738513 0.06592485 0.053605422
000260 3c ac a8 bd 9f b2 3a 3d c7 f6 0c bc bd 6a 02 3c
       -0.08235976 0.045580503 -0.008603758 0.007960019
000270 15 24 45 bb 03 bf 93 bd ef 79 a4 3b 6d f0 67 3d
       -0.003008132 -0.07214167 0.0050194184 0.056625772
000280 4c 38 0b bd f1 5e 64 3b 75 b7 81 3c 50 79 44 bc
       -0.033989236 0.0034846629 0.01583455 -0.011991814
000290 bc 0c 92 3c c3 ca a2 bd c5 a5 4d bc 67 a3 16 3d
       0.017828338 -0.0794883 -0.01255173 0.036776926
0002a0 e6 29 6a ba 08 0b ea bc 9c 63 e9 bc 46 fa 1d 3d
       -0.0008932635 -0.028569713 -0.02848988 0.038568757
0002b0 70 54 3d 3d f2 ba e1 3d b2 95 02 bd 78 3b e0 3c
       0.046223104 0.11021985 -0.03188104 0.027372107
0002c0 29 15 81 bc ad 8d 0b bc c4 b3 96 3d 6e 8e 86 bc
       -0.01575716 -0.008517665 0.07358506 -0.016425338
0002d0 5f 7a ba bb 76 a5 58 bd 40 c2 f5 bb 2b f5 9c 3d
       -0.0056908573 -0.05289217 -0.007499963 0.076639496
0002e0 da a3 8d 3c f5 78 b9 bd 77 82 1b bd f6 3a fb bd
       0.017290045 -0.09056274 -0.037966218 -0.12267105
0002f0 a9 34 f9 3c 6e 1f c9 bc 6e 60 0c bd 2b 9a e4 3c
       0.030420618 -0.02455112 -0.03427165 0.027905544
000300 6d 88 9a bd e4 3b 00 3c df ff 28 3d 4b d7 94 3c
       -0.075455524 0.007826779 0.041259643 0.018169066
000310 88 94 d8 3c 6d 93 5f 3c 67 25 50 3c 72 4b c9 bb
       0.026438013 0.013645989 0.01270423 -0.006143027
000320 52 cf 54 bd 58 48 35 3d 5e 42 92 3d b4 80 88 3c
       -0.05195553 0.044258446 0.07141565 0.016662933
000330 2c 5d ef bd 50 43 6e bd 8f 5b 06 3c 07 ed 55 bd
       -0.11687693 -0.058169663 0.00820054 -0.052228
000340 cc ed 27 3d 9d de 57 bd 70 38 33 bd 0b ae 83 3d
       0.040998265 -0.052702535 -0.043754995 0.064296804
000350 59 a1 55 bd 90 2e 10 3d c1 c0 1a 3d ec ce ad bc
       -0.052155826 0.035200655 0.03778148 -0.021216832
000360 e5 0b 25 3b f5 be 82 bc 99 0f b1 bc b7 5d 8d 3d
       0.0025184092 -0.015960196 -0.021613883 0.0690264
000370 5f 5c 12 bd bd fd 4c 3d 26 c6 2f 3c 47 df 7a bc
       -0.035732623 0.05004667 0.010728395 -0.0153120225
000380 67 48 91 3c e3 c8 f4 bc b6 22 e7 bc 3f 4c a6 bd
       0.01773472 -0.029880947 -0.028214794 -0.081200115
000390 9e f7 1b bd 6f 2b a0 3d 52 f2 5c bd a6 e8 09 be
       -0.038077943 0.07820784 -0.053942032 -0.13467655
0003a0 33 3f ee 3c 4e 7a f0 3d 25 ec 25 bd 50 b2 48 bd
       0.02908287 0.11742078 -0.040508408 -0.048998177
0003b0 a7 9a 72 3c 22 f8 55 3d 0e ad 34 bd 90 ea 8c bd
       0.01480738 0.05223859 -0.04411035 -0.06880677
0003c0 f6 e3 5b 3d 5c 6a e5 3c 63 2b 89 bd 6b 52 5f 3d
       0.053684197 0.028004818 -0.066977285 0.05452196
0003d0 84 bd 70 3d 39 96 0a 3e fc c6 5c bd dd e5 ce bc
       0.058774486 0.13533868 -0.053900704 -0.025256092
0003e0 68 31 8a 3c 43 25 36 3d e3 02 7a bd 77 53 70 bb
       0.016869262 0.04446913 -0.06103791 -0.0036670843
0003f0 64 60 0b 3d 92 9b b3 3d 02 3b 35 3d ee 18 12 3c
       0.034027472 0.08769907 0.044245727 0.0089170765

linear.bias f4 [2]
000000 fb 82 44 3c 08 0e a4 3c
       0.011994119 0.020026222
