scripts/models/model_epoch_1.bin (torch, 4668 bytes, 2 tensors)

linear.weight f4 [2, 384]
000000 be a8 a3 3c eb 93 32 3d 56 57 84 3d 97 ca 2c bd
       0.019977923 0.043598097 0.064619705 -0.042185392
000010 8e cf 69 3d f7 18 83 bc 0d 83 ac 3b 5b df 05 bd
       0.057082705 -0.016003115 0.005264646 -0.03268371
000020 2d 81 80 bc 8f 45 d1 3c a7 f6 bb bc 23 d1 88 3d
       -0.015686596 0.025545863 -0.022944761 0.06680515
000030 e3 fc 2c 3c a1 fd 2a bd 65 96 09 bd ba a7 d5 3c
       0.01055834 -0.041745786 -0.033590693 0.026080955
000040 9b 6d 00 3b a5 8d 36 3d 2c 6d 28 bd 65 08 01 bd
       0.001959658 0.044568677 -0.04111974 -0.031502146
000050 10 c8 6f bd 40 5d ec 3c 9b 22 5b bd 0c 20 2d bd
       -0.058540404 0.028853059 -0.0534998 -0.04226689
000060 90 a3 06 bd 69 2f 0a 3d 00 fc 41 3d c3 33 29 3a
       -0.03287083 0.03373662 0.047359467 0.00064545515
000070 fc c1 30 3d 04 42 31 bd a4 09 44 3d 1a a8 ca 3c
       0.043153748 -0.043275848 0.047860757 0.02473836
000080 9c 21 7b 3c 35 4a a5 3c 94 76 08 bd 01 64 d9 bc
       0.015327837 0.020176986 -0.03331621 -0.026536943
000090 ca f2 f3 bc 96 41 e5 3c 2a 81 39 3d 2e 54 c3 3c
       -0.029778857 0.027985375 0.045289196 0.023843851
0000a0 cf cb 8f 3c 8b 4a ff bc b3 74 59 bd 34 e7 35 bc
       0.017553238 -0.031163475 -0.05308981 -0.011102486
0000b0 27 5c 24 3d 7c 76 cd bc 56 2a ba bc df 67 5d bd
       0.040126946 -0.025080912 -0.022725265 -0.054054137
0000c0 3b 0e 2f bd 4b 0f 4b bc c4 ea 88 bd 82 e8 c9 bb
       -0.04273818 -0.012393783 -0.06685403 -0.0061617503
0000d0 bb 99 1d 3d 55 3a 1e 3d c3 52 fd 3c 26 53 01 bc
       0.038476687 0.03862985 0.030923253 -0.007893359
0000e0 00 62 b5 bc 61 4e 37 3d af df 25 3d 3b 80 db bc
       -0.022141457 0.044752482 0.040496524 -0.026794543
0000f0 74 02 45 3d c9 c7 12 bd ce 0f 07 bd e4 1d be bc
       0.048098043 -0.03583506 -0.032974057 -0.023207612
000100 dd ad 69 3d 06 ea 48 bd d8 e9 25 bd ff 8a e2 bc
       0.057050575 -0.049051307 -0.040506214 -0.02765417
000110 fa 35 1e bd 09 87 2e bd c0 f7 8a 3c 6e b0 39 bc
       -0.038625695 -0.04260925 0.01696384 -0.011333568
000120 1e 30 7a bb df 69 26 bd ae cf 72 3d 14 bb 25 bd
       -0.0038175653 -0.04062831 0.05928009 -0.040461615
000130 3e c9 0f 3d 12 47 22 3d fe 42 2e bc 6a 96 07 bd
       0.03510403 0.03961856 -0.010636089 -0.03310243
000140 0d 42 d1 3b 63 34 d7 ba 28 2c 38 3d 61 83 9f bb
       0.0063860477 -0.0016418811 0.044963986 -0.0048679565
000150 e8 f9 4e 3c db b1 f4 3c 69 c5 70 3c 64 56 e8 3c
       0.0126328245 0.029869964 0.014695504 0.028361507
000160 26 22 16 39 fc 73 9b bc 41 d1 d0 3b 95 ad 16 bb
       0.00014317836 -0.018976204 0.0063726013 -0.0022991647
000170 18 86 3a bd 43 12 0e bd 82 c0 f4 3b 70 28 d4 3c
       -0.045538038 -0.034685384 0.007469238 0.025898188
000180 20 92 e0 bc 98 1a 4f bc 71 5a ad bc 25 3c d7 bc
       -0.027413428 -0.012640618 -0.02116129 -0.026273796
000190 9b a3 b4 3a 07 55 41 bd f0 17 58 3c 7a aa 6d bd
       0.0013781668 -0.04720023 0.013189301 -0.058023907
0001a0 0b ff 54 3d 53 93 5c 3c f0 b7 93 3c 3e ad 93 3b
       0.05200104 0.013462859 0.018032044 0.004506736
0001b0 e7 bc 6b 3c 29 67 e4 3c e6 36 4b bd 30 9b 94 bc
       0.0143883 0.027881222 -0.049612902 -0.018140405
0001c0 1b 41 03 3d 68 df f7 bc 5c b9 0c 3d 0b 60 8d 3c
       0.03204451 -0.030257896 0.03435646 0.01725771
0001d0 67 5c 12 bd b3 97 26 3d d7 b8 e1 bc 6e 7f 0f bd
       -0.035732653 0.040672015 -0.027553959 -0.035033636
0001e0 19 b7 38 bd 15 0e 45 3d ee 8a b9 3b bf ed a4 3c
       -0.04509649 0.048109133 0.0056623137 0.020132897
0001f0 35 85 37 3b dc 96 e1 3c 49 dc 44 bc 37 8b 4f 3d
       0.0028002982 0.027537756 -0.012015411 0.050669875
000200 36 9a 15 3d 0f ec c9 bc 61 6e cd 3a eb c3 d9 3b
       0.03652402 -0.024648694 0.0015673154 0.0066456697
000210 75 d1 8a bc ba e3 0b 3d 51 42 bc 3c 34 c0 ac bc
       -0.01694558 0.034152724 0.02298084 -0.021087743
000220 7a 8a 92 3c 46 ce da 3c 2e a0 8a 3c 0b 72 4c 3d
       0.017888296 0.026709687 0.016922083 0.049913447
000230 7e e9 ba 3c 77 bf ba 3b 2b 9c 09 3c 07 6d 53 3c
       0.022816416 0.005699094 0.00839905 0.012904412
000240 f2 6c de 3b 86 0d 92 bc b9 0c 55 3d 7b ab 6c bd
       0.0067878896 -0.017828714 0.052014086 -0.057780724
000250 9e 2c 0d 3d 01 36 58 bc 64 db cc 3c dd 78 45 3d
       0.03446638 -0.013196469 0.025006957 0.048210967
000260 01 25 4c bd e5 1f 3f 3d 25 d3 b4 3c 46 4d 69 3c
       -0.049839977 0.046661276 0.022073338 0.014239615
000270 10 5f 8f 39 f7 9a 64 bd dd 0b a2 3c e4 ad d0 3c
       0.00027345913 -0.05581185 0.019781047 0.025473543
000280 a5 b9 46 3b 3e 8c 7e 3c 88 89 e6 3c db 19 4f bc
       0.0030323055 0.015536366 0.028141752 -0.012640442
000290 44 ad 86 3c 93 a0 b6 bc c7 c2 40 bb d6 88 f5 3c
       0.016440041 -0.022293365 -0.0029412971 0.029972475
0002a0 4a 42 03 3d e7 44 bf 3c 86 fc b3 3c 31 58 96 bc
       0.03204564 0.023348285 0.021970998 -0.0183526
0002b0 1a 79 95 3b ac 04 29 3d dd d6 01 bc e5 7b 24 3d
       0.0045615556 0.04126422 -0.007924763 0.040157218
0002c0 d0 81 7c 3c 24 7e 00 3d d8 d8 5a 3d 5b 09 d4 3c
       0.015411809 0.031370297 0.053429455 0.025883367
0002d0 9f 32 11 3d 26 90 72 bc cb df ad bc 85 aa 25 3d
       0.035448667 -0.0148048755 -0.021224877 0.040445823
0002e0 7d 21 fb 3c f3 aa 3e bd 79 4d 9b 3b ee 94 64 bd
       0.030655617 -0.04654975 0.00473946 -0.055806093
0002f0 b3 19 0e 3c 98 f1 38 bd c7 89 9c 3c 65 0d af bb
       0.008673119 -0.045152277 0.019108666 -0.005342173
000300 b3 7e e4 bc 9f 0c b5 3c d6 d9 dd bc 52 98 be bc
       -0.027892446 0.022100745 -0.027081411 -0.023265991
000310 8b 8f 02 bd 75 f2 3b 3c 9d 18 f2 3c 3a d5 0b bd
       -0.031875174 0.0114713805 0.029552752 -0.034138896
000320 b3 3b 28 bd 9e 69 92 3c e6 07 11 3d 6e f0 98 bb
       -0.04107256 0.017872628 0.035407923 -0.0046673333
000330 31 0e 6c bd 32 5e 78 bd 65 60 a8 bc c4 11 21 bd
       -0.05763072 -0.060636707 -0.020553777 -0.039323583
000340 85 fe ee 3c a4 cd c2 bc bd 37 bc bc 31 63 2f 3d
       0.029174099 -0.023779698 -0.022975797 0.042819206
000350 bb a4 b6 bc 7c 5b 2b bc 62 1c 5c 3d c0 ef e7 3c
       -0.022295346 -0.010458823 0.053738005 0.028312564
000360 a1 ba 05 bc d7 8c cc 3c c3 7f 91 3c 73 03 3f 3d
       -0.008162172 0.024969501 0.017761117 0.04663415
000370 72 bb 0c bd 40 8c 51 3c a9 5d e1 bc 47 df 7a bc
       -0.03435845 0.012789786 -0.027510481 -0.0153120225
000380 ec b3 94 3c 50 64 8d bc 13 c7 7b 3b a5 77 59 bd
       0.0181522 -0.017259747 0.0038418218 -0.053092618
000390 22 47 f5 bc fd cf 29 3d a4 a2 4c 3c 5c 68 82 bd
       -0.029941145 0.04145812 0.012489948 -0.06367561
0003a0 1b 30 37 3d 54 de 91 3d 35 0c c1 3c 87 e3 f1 bc
       0.04472361 0.07122484 0.023565391 -0.029527439
0003b0 6f 78 46 3d 4b da bb 3b 00 e6 04 bd f5 16 02 bd
       0.0484547 0.0057328097 -0.032445908 -0.031760175
0003c0 21 08 e4 3c bb a3 77 3c 30 b4 cf bb 49 99 19 3d
       0.027835907 0.01511472 -0.0063386187 0.0374997
0003d0 e0 49 6c 3d a0 d9 8a 3d 1c 5f f2 bc b4 b2 03 3d
       0.05768764 0.0677979 -0.029586367 0.032152846
0003e0 69 ca 60 3c 7b a8 35 3d 9d 6a d4 bb c4 28 23 bd
       0.013720133 0.04435013 -0.006482436 -0.0398338
0003f0 17 f6 f5 3c a2 32 4e 3d ec bb 88 3c 51 78 44 3c
       0.030024571 0.050341256 0.01669117 0.011991576

linear.bias f4 [2]
000000 dd 0d a3 bb 7f 89 17 3d
       -0.004976018 0.03699636
