scripts/models/model_epoch_7.bin (torch, 4668 bytes, 2 tensors)

linear.weight f4 [2, 384]
000000 e3 48 53 bd 7c cd c8 3d 08 3b 2a 3e a5 95 38 bd
       -0.051583182 0.09804818 0.16624081 -0.045064587
000010 ac 41 ee 3d b7 5b e4 bb 7d 42 b3 3d 34 7a df bd
       0.1163362 -0.006968941 0.08752916 -0.1091198
000020 81 ee 84 3d 73 ac c0 3c 47 3b d1 bd bf c1 0f 3e
       0.064908035 0.02351973 -0.102163844 0.14038752
000030 6b 26 83 bb 2a c1 5a bd 8d 80 8b bc 1c 5e 40 bc
       -0.0040023825 -0.05340687 -0.017029071 -0.011741187
000040 cb f5 84 3a 79 4c 0a 3e 1d 06 88 bd e7 e6 aa bd
       0.0010144053 0.13505735 -0.06641791 -0.083448224
000050 a4 c9 f8 bd af 9a 2f 3d 0f 88 21 be 80 78 8f 3c
       -0.12147835 0.042872127 -0.15774558 0.017513514
000060 85 49 9a bd 35 b1 13 3e c3 d7 94 3d 05 fb 43 3d
       -0.07533554 0.14423068 0.07267716 0.047846813
000070 48 64 43 3c 77 26 04 bd e3 28 03 3e 3f 5a e3 bc
       0.011925764 -0.032263245 0.12808566 -0.027752994
000080 2f 74 22 bd 77 6c 39 3d 3c c6 f7 bd c0 49 8f 3d
       -0.039661583 0.045269456 -0.12098357 0.069964886
000090 43 8b 52 bd 7f b9 c7 3d d1 c3 11 bd c3 87 86 bd
       -0.05140234 0.097521774 -0.035587136 -0.06568863
0000a0 b7 06 92 bd b1 dc 00 be 74 6e 05 be 4c 79 fd 3a
       -0.07130187 -0.12584187 -0.13030416 0.0019338517
0000b0 26 f2 32 3d db 44 20 bd c5 35 13 3d ca 68 01 be
       0.043687962 -0.039128166 0.03593995 -0.1263763
0000c0 5a 7e 53 bd a5 b4 02 bd cc 75 19 be ef 04 90 bd
       -0.05163417 -0.031910557 -0.14986342 -0.07032191
0000d0 84 e3 d0 3c 36 b9 34 bb 3b b3 44 3c d7 56 bb 3d
       0.025499113 -0.0027576215 0.0120056225 0.09147423
0000e0 b2 49 85 3d 22 4e 38 3d 41 64 da 3c 49 17 b7 bd
       0.06508197 0.04499639 0.026659133 -0.08939988
0000f0 fa da b3 3d bc 75 9f bd d1 d8 4e bd e4 d9 90 3d
       0.08782001 -0.07786128 -0.05049974 0.07072809
000100 df 85 ec 3d cf 49 0e be ca 6b 49 3b 73 9d 7a 3d
       0.115489714 -0.13895343 0.0030734413 0.06118531
000110 c1 f0 18 bd 39 28 be bd 8e c9 d0 3d d1 e4 99 3c
       -0.037338976 -0.092850156 0.101946935 0.018785866
000120 63 5a 88 3d ae 2e 0d bd c7 84 de 3d e6 f8 c7 bd
       0.06657865 -0.034468345 0.10865169 -0.097642705
000130 2e 3b e4 3c 67 48 c6 3c ab 7d 05 3d 84 83 03 3d
       0.02786025 0.024204446 0.03259055 0.032107845
000140 5a a8 69 3d 06 1b fb 3c 75 e7 d3 3b 78 ca 99 3d
       0.05704532 0.030652534 0.006466801 0.07509321
000150 c4 df b4 3c a3 d3 d3 3c 2e 09 31 3b 90 38 96 bd
       0.022079356 0.025857752 0.0027013528 -0.07335007
000160 95 78 a8 bd 25 9f 15 bd d5 b2 af 3c 2e 13 49 bd
       -0.08226124 -0.036528725 0.021447578 -0.049090557
000170 26 08 5c bd 36 1b de bd 53 5d 51 3c cc c3 82 3c
       -0.05371871 -0.10845034 0.012778598 0.015962504
000180 5c e3 91 39 fb ce ac bd d0 27 87 bc cd f2 d7 3c
       0.0002782595 -0.08437916 -0.016498476 0.026360894
000190 f5 1a 44 bc 81 98 13 bd 68 af bb 3c c3 24 8f bd
       -0.011969318 -0.03603411 0.022910789 -0.069894336
0001a0 d6 11 b8 3d 83 32 46 bd 2c dc 8f bc 92 13 77 bd
       0.08987777 -0.048388015 -0.01756104 -0.060321398
0001b0 f4 ea ba 3c 41 47 80 bd 90 6b 07 be b4 16 8f 3c
       0.022817113 -0.062635906 -0.13224626 0.01746688
0001c0 ce e1 e8 3c 39 59 5b bd 80 9e 7c bc 06 01 38 3d
       0.028427985 -0.053551886 -0.015418649 0.04492285
0001d0 54 c0 3e bd 48 47 c4 3c ca 6e 8a bd 9d e1 c1 bd
       -0.046570137 0.02395977 -0.067594126 -0.094668604
0001e0 bb d1 32 bd f7 80 d7 3c 48 83 30 bd 12 81 a4 3d
       -0.043657046 0.026306612 -0.04309395 0.08032431
0001f0 49 51 a4 3d de 7d 46 bd d6 94 f7 bc 37 8b 4f 3d
       0.080233164 -0.04845988 -0.030222338 0.050669875
000200 19 d3 4f 3d 20 e5 af bd 6f 61 67 bd d3 88 52 3d
       0.050738428 -0.08588624 -0.056489404 0.051400017
000210 1c ad 1f bc fd 7b 43 bd ca f8 21 bd bd 19 a5 bd
       -0.009745862 -0.047725666 -0.039543904 -0.0806155
000220 c4 a6 93 3c dc e4 ba 3d 58 cc d2 3d a2 26 00 3e
       0.018023856 0.09125683 0.10292882 0.12514737
000230 a3 a1 c5 3d 82 df 84 3d 98 9f 6e 3c c5 3b b3 3c
       0.096499704 0.06487943 0.014564417 0.021879086
000240 72 07 65 bd 14 ef fe bb 0c a6 e9 3d 53 03 e6 bc
       -0.055915304 -0.007779965 0.11408624 -0.028077757
000250 44 92 7d 3c b7 f6 3c 3c 5c df b2 3d c1 23 73 3d
       0.015476767 0.011533431 0.08734009 0.05936027
000260 33 10 d3 bd be f4 1d 3d f7 81 91 bc 8b 8c 31 39
       -0.10305824 0.038563482 -0.017762167 0.00016932392
000270 56 3f 9e bb 0d 0e b4 bd 93 49 91 3b 05 03 94 3d
       -0.0048293276 -0.087917425 0.0044338196 0.072271384
000280 3f 39 36 bd 16 71 27 bb d4 1f f1 3b 1c 8c ac bc
       -0.044488188 -0.0025549582 0.0073585305 -0.021062903
000290 0d 84 a6 3c 0e 2d d4 bd 7b b0 9b bc e1 2f 15 3d
       0.020326639 -0.10360156 -0.01900505 0.036422614
0002a0 b8 09 ac bc a1 bb 4b bd 68 6c 6c bd f3 bc 7f 3d
       -0.021000728 -0.049739484 -0.05772057 0.062436055
0002b0 f4 91 89 3d c3 09 0e 3e e4 89 0f bd f4 b7 b4 3c
       0.067172915 0.13870911 -0.035043612 0.022060372
0002c0 21 a0 09 bd 88 e5 d6 bc 8e 23 ba 3d 32 f0 fe bc
       -0.033599976 -0.026232496 0.09088813 -0.031120393
0002d0 4c d7 b4 bc df b2 88 bd e2 23 18 bc 0d 49 b0 3d
       -0.022075318 -0.06674742 -0.009285899 0.08607683
0002e0 aa da 1c 3c bb 23 e0 bd 1b 48 76 bd 9a 2b 1e be
       0.009573618 -0.10944315 -0.06012736 -0.1544632
0002f0 56 ab 2f 3d 5a 00 a4 bc 2b 7c 7b bd 3b a1 45 3d
       0.042888008 -0.020019699 -0.061397713 0.048249464
000300 e5 57 ce bd 8f 36 77 bb 14 cf 93 3d 95 57 18 3d
       -0.10075358 -0.0037721728 0.072172314 0.0371929
000310 f4 5d 61 3d d9 30 56 3c f3 f4 c4 3b 8e d1 bc 3b
       0.05502124 0.01307317 0.0060106455 0.0057622856
000320 9e f6 56 bd 7c 86 7f 3d c4 08 aa 3d 9c 75 e2 3c
       -0.052481286 0.062384114 0.08302453 0.027643971
000330 d7 d5 19 be 2e 37 80 bd 44 29 bb 3c 4c f2 65 bd
       -0.1502298 -0.06260525 0.022846825 -0.056139275
000340 6c 92 30 3d 6d b2 84 bd da 65 47 bd 4b 7d 91 3d
       0.04310839 -0.064793445 -0.048681118 0.07103976
000350 f2 37 87 bd ff 99 71 3d b3 b4 1f 3d cf d3 3e bd
       -0.066024676 0.058984753 0.038990688 -0.046588715
000360 15 49 89 3c 44 a8 fe bc 61 8e 15 bd fc cf 9b 3d
       0.016758481 -0.031086095 -0.036512736 0.07608029
000370 e2 2e 26 bd 1a d0 87 3d 34 29 07 3d 47 df 7a bc
       -0.040572055 0.06631489 0.03299828 -0.0153120225
000380 3b 0f ad 3c e9 f4 06 bd 9b 25 35 bd 0d b4 c5 bd
       0.021125427 -0.03294841 -0.044225316 -0.096534826
000390 7f b4 2c bd 6e 3d c1 3d 92 35 a6 bd 1f b1 2b be
       -0.042164322 0.09435545 -0.081156865 -0.16766785
0003a0 3a 3d bc 3c 28 83 0a 3e af a5 90 bd c4 cf 67 bd
       0.022978414 0.13526595 -0.07062852 -0.056594625
0003b0 25 d0 91 3a 58 02 9b 3d 5b 2b 40 bd 8e 4a b3 bd
       0.0011124654 0.075688064 -0.046916347 -0.087544546
0003c0 84 25 84 3d 30 a3 0b 3d 1d 94 bf bd 7b 31 6e 3d
       0.06452468 0.034091175 -0.09354422 0.058152657
0003d0 d7 b3 84 3d 76 1b 27 3e b6 e9 80 bd 4c 87 4f bd
       0.06479614 0.1631907 -0.06294577 -0.05066614
0003e0 67 17 92 3c 83 a2 34 3d 98 d6 ad bd ef 11 8b 3c
       0.017833425 0.044100296 -0.08488196 0.016976325
0003f0 ff 96 06 3d 41 cd dd 3d 2b 22 6d 3d cc a9 03 3c
       0.032858845 0.10830165 0.057893913 0.008036088

linear.bias f4 [2]
000000 0e 52 8a 3c ec fa 77 3c
       0.01688483 0.015135508
