scripts/models/model_epoch_10.bin (torch, 4674 bytes, 2 tensors)

linear.weight f4 [2, 384]
000000 ff 8d aa bd 0e 83 06 3e c2 78 54 3e 18 65 82 bd
       -0.08327865 0.13135931 0.2074919 -0.06366938
000010 5e 59 0f 3e b4 5f c3 bb 68 0d 01 3e 6a 54 0a be
       0.13998935 -0.0059623364 0.1260277 -0.13508764
000020 59 7a ca 3d 84 fe a5 3c af 93 10 be 4b 36 33 3e
       0.09886617 0.020262964 -0.14118837 0.1750118
000030 30 9a 98 bc 42 ef 1e bd 57 84 04 bc 5b 1d d3 bc
       -0.01862821 -0.038802393 -0.008088193 -0.025770834
000040 b3 29 d5 bb 5c 13 38 3e a0 18 88 bd 1d 1b bf bd
       -0.006505215 0.17976135 -0.06645322 -0.09331343
000050 1b 48 1c be 5b c4 59 3d 01 b8 53 be f1 b2 3b 3d
       -0.15261881 0.053165775 -0.2067566 0.04582495
000060 56 4f c9 bd 32 cf 46 3e 08 db b5 3d 96 c3 84 3d
       -0.09829585 0.19414976 0.088796675 0.064826176
000070 5c d1 a2 bb bd 61 fd bc 97 e0 1f 3e 70 0e 63 bd
       -0.0049688052 -0.030930394 0.15613018 -0.05543369
000080 08 f1 90 bd 17 6a 42 3d fe 1d 21 be b9 61 db 3d
       -0.07077223 0.047464456 -0.15734097 0.107119985
000090 8c a0 3d bd 3d 43 06 3e a0 ac 82 bd 93 d8 dc bd
       -0.046295688 0.13111587 -0.06380582 -0.10783496
0000a0 6c f7 e8 bd 22 23 24 be e0 1c 25 be af 5b af 3a
       -0.11375317 -0.16029027 -0.16124296 0.0013378764
0000b0 db fb 07 3d 73 66 49 bd 05 60 90 3d 6f c8 14 be
       0.033199172 -0.04916997 0.07049564 -0.14529584
0000c0 6e 9d 56 bd e6 5e 1d bd 20 ae 37 be 9a f0 c1 bd
       -0.05239623 -0.03842058 -0.17937517 -0.09469719
0000d0 e5 57 b3 3c 12 8e cd bc 3c 64 19 3b 54 c2 08 3e
       0.021892497 -0.025092158 0.0023405692 0.1335538
0000e0 e1 2a d4 3d f5 01 2e 3d 2b f1 ca 3c 8b de e6 bd
       0.10359741 0.042482335 0.024773201 -0.112729155
0000f0 a4 df c4 3d 04 ea a3 bd d8 22 44 bd d6 f2 d1 3d
       0.096129686 -0.08003619 -0.047884792 0.102513954
000100 73 b6 08 3e 59 74 32 be 9b 12 b0 3c 55 4e bc 3d
       0.13350849 -0.17427196 0.021493247 0.09194628
000110 e9 45 29 bd 87 6f d4 bd 99 15 0e 3e 2a de d1 3c
       -0.041326437 -0.10372835 0.13875426 0.025618631
000120 cf 43 ca 3d 04 8a d2 bc a0 b7 ec 3d 6d ed fe bd
       0.09876215 -0.025700577 0.11558461 -0.12447629
000130 9f 7e c5 3c ef 62 83 3c 82 f6 29 3d a5 d9 83 3d
       0.02410823 0.016038386 0.041494854 0.06437997
000140 d6 9c a4 3d f0 7e 34 3d 98 1d 82 bc e3 1b ef 3d
       0.080377266 0.04406637 -0.015883252 0.11675241
000150 1f 35 bb 3c 4a 1e f0 3c 44 0b c2 bb 21 19 f3 bd
       0.022852479 0.029311318 -0.005921753 -0.11870027
000160 45 59 ec bd 87 a6 33 bd 76 5e 02 3d 3f 0f 82 bd
       -0.11540464 -0.043859985 0.031828366 -0.06350564
000170 4d 1e 5f bd 01 e9 00 be c3 21 f8 3c f9 73 a3 b9
       -0.054472256 -0.12588884 0.030289536 -0.0003117619
000180 e6 b5 a6 3c 97 d9 e6 bd b5 93 ab bc 9f e9 3f 3d
       0.020350408 -0.11271971 -0.020944456 0.046853658
000190 45 a5 ff bb 28 3a 0b bd 54 1a b6 3c 3d a7 99 bd
       -0.007801684 -0.03399101 0.022229351 -0.07502601
0001a0 04 a4 e7 3d 63 06 96 bd 5b 0b 0e bd 2c bf c7 bd
       0.113105804 -0.07325437 -0.0346788 -0.0975326
0001b0 d9 12 85 3c 0e 0a bf bd 28 65 28 be e0 4c f8 3c
       0.016244339 -0.0932809 -0.16444838 0.030310094
0001c0 50 c9 e1 3c ed 52 89 bd e8 9f 06 bd 16 c0 52 3d
       0.027561814 -0.0670527 -0.032867342 0.05145272
0001d0 51 28 79 bd c1 00 6c 3b 09 7f b8 bd 74 af fd bd
       -0.060829464 0.0036011192 -0.09008605 -0.12386981
0001e0 2b d1 2c bd 36 0b 97 3c 8e e5 9d bd 42 94 d9 3d
       -0.042191666 0.018437963 -0.077098 0.10623981
0001f0 2e 4a f2 3d a0 6c 99 bd 91 04 ee bc 37 8b 4f 3d
       0.11830555 -0.07491422 -0.029054912 0.050669875
000200 87 6e 44 3d 7f b6 e2 bd ae 67 a8 bd f0 b6 88 3d
       0.04795697 -0.110699646 -0.082229 0.066755176
000210 35 c6 73 bc 07 c5 97 bd 0b ab 88 bd d8 9b cc bd
       -0.014878799 -0.07410627 -0.06673249 -0.09990662
000220 f4 cd 9b 3c 8a 7c f0 3d 44 16 0e 3e 1e b9 1e 3e
       0.019019105 0.11742504 0.13875681 0.15500304
000230 91 d6 f7 3d d7 68 a8 3d 7f 11 92 3c 06 b0 dd 3c
       0.12101472 0.082231216 0.017830608 0.027061474
000240 88 fa 9e bd e1 87 03 bc 9b d7 10 3e b7 7a 51 bc
       -0.07762629 -0.0080280015 0.14144747 -0.012785605
000250 d4 81 2a 3b 88 02 86 3c 23 4f dc 3d 25 5a a0 3d
       0.0026017325 0.016358629 0.10757282 0.07829694
000260 f8 9e eb bd e9 1d aa 3c 09 1e 23 bd 73 36 3d bc
       -0.1150493 0.020766215 -0.039823566 -0.011548626
000270 82 58 f3 bb e4 6b ef bd 58 0b 90 ba 0e 46 b3 3d
       -0.0074263224 -0.116905004 -0.0010989709 0.08753596
000280 92 52 59 bd 0c ef 52 bc 5f f9 11 bc 50 cc 0d bd
       -0.05305726 -0.012874376 -0.008909552 -0.034618676
000290 4e a0 a3 3c 64 9e 0d be 37 be f2 bc b9 18 48 3d
       0.0199739 -0.13829952 -0.029631717 0.048851702
0002a0 be 3c 1c bd fa b3 98 bd f0 ae cc bd 85 34 d5 3d
       -0.038143866 -0.07456203 -0.09994304 0.10410408
0002b0 0a bf da 3d e0 af 32 3e 2c 4e 3f bd 5a ba 9f 3c
       0.10680969 0.17449903 -0.04670541 0.019498039
0002c0 d8 c1 88 bd 4a 65 75 bd 25 f0 f1 3d 1c ab 38 bd
       -0.06677598 -0.05991105 0.11813382 -0.045085058
0002d0 01 30 3d bd 67 a9 ac bd e4 40 5d bc b8 36 c0 3d
       -0.04618836 -0.084307484 -0.013504241 0.09385437
0002e0 4a 9c a0 bb 7d 52 12 be 32 38 b6 bd b9 23 4a be
       -0.0049014436 -0.1428928 -0.08897437 -0.1974019
0002f0 c0 66 5d 3d 9f f2 a1 bc 98 3f be bd 20 bc 8f 3d
       0.05405307 -0.019769011 -0.09289473 0.07018304
000300 e1 0d 0e be 4e 5e e1 bc 08 40 e7 3d c0 2c 53 3d
       -0.13872482 -0.027510788 0.1129151 0.05155635
000310 f6 0c b0 3d 5e ea 51 3c b2 14 ba bb 29 97 7f 3c
       0.08596222 0.012812225 -0.0056787366 0.015600004
000320 ce f4 2b bd c4 6a ad 3d b5 4e c6 3d c6 74 3f 3d
       -0.04198151 0.084676296 0.09682981 0.046742223
000330 50 47 48 be ed 82 84 bd 06 7b 29 3d a4 61 86 bd
       -0.19558454 -0.064702846 0.04137709 -0.06561592
000340 06 8f 48 3d c7 bd ae bd d5 b3 3a bd 37 6c ab 3d
       0.048964523 -0.08532291 -0.045581657 0.0837025
000350 62 a5 a0 bd e1 68 ba 3d cf 3a 29 3d fa 01 9d bd
       -0.07844044 0.09102035 0.04131585 -0.076663926
000360 9a 6f 07 3d 5c 80 69 bd 34 f7 3d bd b6 45 c6 3d
       0.033065416 -0.05700718 -0.04637833 0.09681265
000370 10 62 4e bd 83 18 aa 3d 6e 63 85 3d 47 df 7a bc
       -0.05038649 0.083054565 0.06513105 -0.0153120225
000380 97 b1 d6 3c d9 3a 2c bd 76 a6 6d bd 09 24 04 be
       0.026207728 -0.04204831 -0.058020078 -0.12904371
000390 1e 60 2d bd 33 a4 fe 3d 50 59 e5 bd b1 c8 5b be
       -0.042327993 0.12433662 -0.11198676 -0.21463276
0003a0 6c 5a 7e 3c 04 8f 1f 3e 18 4c e0 bd 3c 76 82 bd
       0.015524488 0.155819 -0.10952014 -0.06370208
0003b0 d4 8d d0 bc f9 21 d3 3d 46 6e 4c bd 5d b5 f7 bd
       -0.025458254 0.10309214 -0.049909852 -0.12095139
0003c0 3f 0f a2 3d 53 9e 40 3d 40 70 04 be c0 79 85 3d
       0.07913064 0.04702599 -0.12933445 0.065173626
0003d0 7b 0d 98 3d ca a6 51 3e e1 cb 9d bd cb 39 b0 bd
       0.07424446 0.20473781 -0.077049024 -0.08604773
0003e0 7d e1 97 3c 21 55 2f 3d a2 a6 fa bd f7 64 1e 3d
       0.018540138 0.042805795 -0.12238814 0.038670506
0003f0 5b 95 15 3d c9 6c 0f 3e bf fa 9f 3d 73 0d 31 3c
       0.03651939 0.14006342 0.07811498 0.010806429

linear.bias f4 [2]
000000 4d f6 85 3c 36 59 80 3c
       0.016352797 0.01566754
