scripts/models/model_epoch_2.bin (torch, 4668 bytes, 2 tensors)

linear.weight f4 [2, 384]
0	0x3c1f8fce	0.009738876
1	0x3d5136b8	0.051077574
2	0x3dac08e2	0.08400132
3	0xbd339596	-0.04384383
4	0x3d8369f6	0.06416695
5	0xbc6d0de6	-0.014468646
6	0x3c8c20f2	0.017105553
7	0xbd43d223	-0.047807824
8	0xba54745c	-0.0008104497
9	0x3cb4c438	0.02206622
10	0xbd1421f3	-0.03616519
11	0x3d9e77fe	0.077377304
12	0x3bb546bd	0.0055321143
13	0xbd3a6413	-0.045505594
14	0xbd02c514	-0.03192623
15	0x3c6d19f4	0.01447152
16	0xbaf82a12	-0.0018933436
17	0x3d77b446	0.060474657
18	0xbd3ca343	-0.046054136
19	0xbd1b3320	-0.037890553
20	0xbd956885	-0.07295326
21	0x3d07790b	0.03307442
22	0xbd91fb66	-0.071280286
23	0xbcfa1b74	-0.030530669
24	0xbd242f90	-0.04008442
25	0x3d5d8ca9	0.054089222
26	0x3d50a340	0.050936937
27	0x3c170e14	0.009219665
28	0x3d136e3c	0.0359938
29	0xbd1ec7ba	-0.038764693
30	0x3d84d1b1	0.06485308
31	0x3c8d0682	0.017215017
32	0x3bb4d297	0.0055182683
33	0x3cb89fec	0.022537194
34	0xbd443292	-0.04789979
35	0xbc2d6259	-0.01058253
36	0xbd0b5348	-0.03401497
37	0x3d294fd4	0.041335896
38	0x3cf2d212	0.029641185
39	0x3c1c0a41	0.009523929
40	0x3ac69a85	0.0015152252
41	0xbd4d6a77	-0.05015036
42	0xbd87e1c0	-0.06634855
43	0xbbb7176a	-0.005587508
44	0x3d28c005	0.04119875
45	0xbcc528a0	-0.024067223
46	0xbc33fc51	-0.01098545
47	0xbd9101c5	-0.07080416
48	0xbd3c5605	-0.045980472
49	0xbc348eeb	-0.011020402
50	0xbda95395	-0.08267895
51	0xbc61a144	-0.013771359
52	0x3d107cc9	0.035275254
53	0x3d0378b8	0.03209755
54	0x3cd4e233	0.025986766
55	0x3c22c9ab	0.009935777
56	0xbc0c1dd9	-0.008552038
57	0x3d35dec9	0.044401918
58	0x3d0c87ac	0.034309074
59	0xbd1d0e92	-0.038343973
60	0x3d5e108c	0.054215
61	0xbd30439c	-0.043033227
62	0xbd16f7f6	-0.036857568
63	0xbbe4e83a	-0.0069856914
64	0x3d8c2594	0.06843105
65	0xbd85e574	-0.06537905
66	0xbd057cbc	-0.03258966
67	0xbc301267	-0.010746575
68	0xbd1bf660	-0.03807676
69	0xbd50ab02	-0.050944336
70	0x3d053299	0.032518957
71	0xbbc0862f	-0.005875371
72	0x3c240b4d	0.01001246
73	0xbd2052dc	-0.03914152
74	0x3d86a4c0	0.06574392
75	0xbd50d245	-0.05098178
76	0x3d0a9990	0.033837855
77	0x3d143f99	0.036193464
78	0x39230032	0.00015544964
79	0xbcb99e20	-0.022658408
80	0x3c88b8dd	0.016689712
81	0x3b5cd9be	0.003369912
82	0x3d1932d0	0.037401974
83	0x3c15bf83	0.009139898
84	0x3c5d874b	0.013521026
85	0x3cd537ae	0.026027527
86	0x3c809bd6	0.015699308
87	0x3c354e81	0.01106608
88	0xbc758b03	-0.014986756
89	0xbcca5ab7	-0.02470146
90	0x3c47f622	0.012204679
91	0xbc43fb46	-0.011961764
92	0xbd4159e3	-0.047204863
93	0xbd483977	-0.048882928
94	0x3b9b2d2f	0.004735611
95	0x3cb30641	0.021853568
96	0xbcaf0e68	-0.021369174
97	0xbcb6ff75	-0.022338608
98	0xbca0e456	-0.019640129
99	0xbca601dc	-0.020264558
100	0xbb1d324c	-0.0023986278
101	0xbd346a35	-0.0440466
102	0x3c55a7a8	0.013040461
103	0xbd71f367	-0.059070017
104	0x3d6b5556	0.05745443
105	0xbb3c7db7	-0.0028761455
106	0x3c5f3932	0.013624476
107	0xbbde167d	-0.006777583
108	0x3c807a00	0.015683174
109	0x3c4595d3	0.012059647
110	0xbd7c0cf1	-0.06153578
111	0xbc154484	-0.009110574
112	0x3cf76943	0.03020156
113	0xbd129005	-0.03578188
114	0x3cd2cad0	0.025731474
115	0x3cb2521b	0.021767667
116	0xbd28455b	-0.041081768
117	0x3d1f6955	0.03891881
118	0xbd0705cc	-0.032964513
119	0xbd476e5b	-0.048689228
120	0xbd3f7a01	-0.04674721
121	0x3d30402d	0.043029953
122	0xbabc4938	-0.0014365083
123	0x3d06b1e4	0.032884493
124	0x3c915c8c	0.017744325
125	0x3c7d13c2	0.015446605
126	0xbc6c3853	-0.014417726
127	0x3d4f8b37	0.050669875
128	0x3d172d20	0.03690827
129	0xbd134d86	-0.035962604
130	0xbb8f65ce	-0.0043761497
131	0x3c8bb71d	0.017055089
132	0xbc8864a4	-0.016649552
133	0x3c93caba	0.018041003
134	0x3bf19385	0.007372322
135	0xbd07479e	-0.033027284
136	0x3c8ebe2c	0.017424665
137	0x3d1d7d6f	0.0384497
138	0x3d04eb3b	0.032450896
139	0x3d802210	0.06256497
140	0x3d0fd685	0.03511669
141	0x3c794dce	0.015216304
142	0x3bf39ddb	0.0074345893
143	0x3c8c2b0f	0.017110376
144	0xbbf2a750	-0.007405199
145	0xbc8a0b03	-0.016850954
146	0x3d7d4071	0.061829034
147	0xbd5075df	-0.05089366
148	0x3d0201e6	0.03174009
149	0xbbc7dd02	-0.006099344
150	0x3d05d81e	0.03267681
151	0x3d43f5c9	0.04784182
152	0xbd704292	-0.058657236
153	0x3d4490a8	0.047989517
154	0x3c4a7608	0.012357242
155	0x3c639554	0.013890583
156	0xbb6bc322	-0.0035974463
157	0xbd6fc10b	-0.05853371
158	0x3c6edc62	0.014578911
159	0x3cfe5319	0.031045483
160	0xbbb67ee9	-0.005569328
161	0x3c0f4e2b	0.008746664
162	0x3cdf42b2	0.027253482
163	0xbc4c4cda	-0.012469495
164	0x3c9a42f4	0.018830754
165	0xbd125993	-0.035729956
166	0xbbd2f273	-0.0064375936
167	0x3d0d6ef7	0.034529652
168	0x3cc37245	0.023858199
169	0x3c1915ed	0.009343606
170	0x3c0ab7de	0.008466689
171	0xbb7e91c4	-0.0038844207
172	0x3c8dc0c8	0.01730384
173	0x3d6c537d	0.057696808
174	0xbc7bfd48	-0.015380211
175	0x3d21de5d	0.039518703
176	0x3c2814da	0.010258878
177	0x3ca3cdf3	0.019995665
178	0x3d6ee960	0.058328032
179	0x3c7ebe9b	0.015548374
180	0x3cc1dea5	0.023665735
181	0xbcc7740a	-0.024347324
182	0xbc905c9c	-0.017622285
183	0x3d4ca889	0.049965415
184	0x3cc83b72	0.024442408
185	0xbd7151b8	-0.058915824
186	0xbb637d80	-0.0034712255
187	0xbd955347	-0.072912745
188	0x3c51c245	0.012802665
189	0xbd1ec66e	-0.038763456
190	0x3bbaa515	0.005695949
191	0x3a84aa67	0.0010121585
192	0xbd22a5e8	-0.039709
193	0x3c997f83	0.01873756
194	0xbc1870f4	-0.009304274
195	0xbc3cdd3a	-0.011527354
196	0xbc91e5bf	-0.017809747
197	0x3c716543	0.014733615
198	0x3cc7851b	0.024355462
199	0xbcf5d7aa	-0.030010063
200	0xbd2f5920	-0.042809606
201	0x3ccc11a1	0.02491075
202	0x3d3a2e31	0.045454208
203	0x3b5404f8	0.0032351594
204	0xbd94bdfc	-0.07262799
205	0xbd70ac29	-0.058757935
206	0xbc65899f	-0.014009862
207	0xbd29dcb8	-0.04147026
208	0x3d069b67	0.032863047
209	0xbcdd189d	-0.026989276
210	0xbcfbdbf9	-0.03074454
211	0x3d38438f	0.044986304
212	0xbcf15036	-0.029457193
213	0x3aacb35d	0.0013176013
214	0x3d4bdc15	0.049770433
215	0x3c70983d	0.014684734
216	0xbbe298f1	-0.0069152047
217	0x3c42bc1b	0.011885668
218	0x3bd359aa	0.006449898
219	0x3d567975	0.052361924
220	0xbd0462ae	-0.03232067
221	0x3ca31c6d	0.019911015
222	0xbc99ab45	-0.018758425
223	0xbc7adf47	-0.0153120225
224	0x3c92aa82	0.01790357
225	0xbcb7be50	-0.022429615
226	0xbb9855fa	-0.004648921
227	0xbd6bdf64	-0.05758609
228	0xbd0a8622	-0.033819325
229	0x3d563e30	0.0523054
230	0xbbb44b23	-0.005502121
231	0xbda764f4	-0.08173552
232	0x3d25198f	0.040307578
233	0x3daff468	0.08591539
234	0x3c1a0967	0.009401656
235	0xbd157ce7	-0.03649607
236	0x3d1f4bbc	0.038890585
237	0x3c8ea5cf	0.017413048
238	0xbd04d0ab	-0.032425564
239	0xbd1f3512	-0.03886897
240	0x3d082380	0.03323698
241	0x3c8b8d01	0.01703501
242	0xbca98022	-0.020690981
243	0x3d2b2633	0.041784476
244	0x3d7c7357	0.061633434
245	0x3dae79c5	0.085193194
246	0xbd097d17	-0.03356656
247	0x3ca15146	0.019692075
248	0x3c35522c	0.011066955
249	0x3d2f2f05	0.04276945
250	0xbcac92c7	-0.021066083
251	0xbd02398c	-0.031793162
252	0x3d0314ac	0.032002136
253	0x3d6f655f	0.058446284
254	0x3cd2b17e	0.0257194
255	0x3c25b030	0.010112807

linear.bias f4 [2]
0	0xbb02e209	-0.0019971153
1	0x3d0b55e3	0.034017455
