scripts/models/model_epoch_3.bin (torch, 4668 bytes, 2 tensors)

linear.weight f4 [2, 384]
000000 20 52 91 ba 10 be 74 3d 6e b0 cc 3d 38 47 33 bd
       -0.0011087097 0.05975157 0.09994589 -0.04376909
000010 37 91 91 3d 6e de 0f bc 78 1b 03 3d 1e 14 81 bd
       0.07107776 -0.008781059 0.032008618 -0.06302665
000020 1c cf 77 3c 0f c9 b2 3c 0d 13 39 bd 1d 31 b4 3d
       0.015125062 0.021824388 -0.045184184 0.0879843
000030 6e 65 94 3b ed 17 43 bd 2d 88 de bc ae 79 ff 3b
       0.004528693 -0.04763024 -0.027164543 0.007796488
000040 0f f9 6a bb 8d 2a 99 3d b7 0b 49 bd 37 20 45 bd
       -0.0035854017 0.07478819 -0.049083438 -0.048126426
000050 7d c8 ab bd 91 5c 0b 3d a3 b0 b4 bd 24 be a8 bc
       -0.083878495 0.034023825 -0.08822753 -0.020598479
000060 00 73 3c bd 43 3e 97 3d 46 79 58 3d 37 a7 6a 3c
       -0.04600811 0.07384922 0.05285003 0.014322094
000070 1d 68 08 3d ba 33 18 bd 19 c8 a7 3d 3a d0 25 3c
       0.033302415 -0.037158705 0.081924625 0.010120446
000080 fc 9d 95 bb 68 f2 e2 3c 11 76 86 bd 80 aa d0 3b
       -0.0045659523 0.027703479 -0.06565488 0.0063679814
000090 56 7f 25 bd fa 85 64 3d e1 8b 80 3c 04 db 44 bb
       -0.04040464 0.055791833 0.0156917 -0.003003777
0000a0 c4 d2 5c bc 2e bc 89 bd 4e 9f a6 bd c7 d7 93 bb
       -0.013477985 -0.067253456 -0.08135854 -0.0045118066
0000b0 c2 66 2a 3d cf 14 da bc d2 de 3a bb c2 6c af bd
       0.041601904 -0.02662125 -0.002851416 -0.08565666
0000c0 21 e1 52 bd 43 99 79 bc cd ac ca bd 84 dc cb bc
       -0.05148423 -0.015234294 -0.098962404 -0.024885423
0000d0 d9 21 0a 3d 62 79 d7 3c 64 96 b7 3c cc a6 d6 3c
       0.033723686 0.026302997 0.022410579 0.026202582
0000e0 01 49 eb 3b c9 55 43 3d 69 d6 d7 3c 68 13 48 bd
       0.0071803336 0.047689233 0.026347356 -0.048846632
0000f0 7a 38 6e 3d 4f 79 50 bd 24 c0 26 bd 49 53 20 3c
       0.05815933 -0.05089694 -0.040710583 0.009785482
000100 f9 f7 a6 3d 2f 0c a5 bd a7 85 e6 bc e9 9e bc 3b
       0.08152766 -0.080589645 -0.028139902 0.0057562483
000110 cf a5 12 bd b3 4b 7b bd 4c 2f 46 3d 10 3e 95 bb
       -0.03580266 -0.06135149 0.04838495 -0.0045545176
000120 f3 b5 bc 3c dd 10 25 bd 1d a3 9d 3d 02 9f 73 bd
       0.023035979 -0.040299285 0.07697127 -0.059477814
000130 b4 55 f9 3c 0e b6 00 3d c2 66 24 3c eb 37 62 bc
       0.030436374 0.03142362 0.010034265 -0.013807277
000140 2b eb c2 3c c8 8e 12 3c 26 e5 f7 3c e8 5c c5 3c
       0.023793777 0.0089451745 0.030260634 0.024092153
000150 dd 40 84 3c 6e 50 c1 3c 79 f2 7e 3c 1d 09 e4 bb
       0.01614421 0.023597922 0.01556074 -0.006959094
000160 bc 55 00 bd 33 ab b9 bc 8e 34 85 3c 57 7b a3 bc
       -0.031331763 -0.022664642 0.016260412 -0.019956274
000170 2f 60 47 bd 10 f6 82 bd af f7 a7 3b 12 66 b4 3c
       -0.048675712 -0.06394589 0.0051259617 0.022021327
000180 5a a4 8c bc 1f 81 06 bd 0a 69 82 bc 44 b5 43 bc
       -0.017168213 -0.032837983 -0.015919227 -0.011945073
000190 59 5e b7 bb 0b 9c 2a bd 05 22 48 3c 96 ba 79 bd
       -0.005595964 -0.04165272 0.012215142 -0.060968958
0001a0 d5 19 6a 3d 74 c2 8b bc 3a 85 fa 3b 15 16 9a bc
       0.05715354 -0.017060496 0.0076452764 -0.018809358
0001b0 8a 76 92 3c 05 58 42 bb d6 2c 9b bd 7e c8 a0 b9
       0.01787879 -0.0029654515 -0.07576911 -0.00030666956
0001c0 a9 7b 0a 3d 76 8f 1e bd 14 a2 8a 3c ce 7d eb 3c
       0.033809338 -0.038711034 0.016922988 0.028746512
0001d0 ea 65 28 bd 28 d9 28 3d 8b be 13 bd 21 d6 64 bd
       -0.041112818 0.04122272 -0.036070388 -0.05586827
0001e0 7e 8a 31 bd 12 27 14 3d 20 6d 17 bc ac 61 26 3d
       -0.043344967 0.036170073 -0.009242326 0.04062049
0001f0 01 ad f4 3c 34 93 df 3a e3 99 99 bc 37 8b 4f 3d
       0.029867651 0.001705742 -0.018750137 0.050669875
000200 e6 24 30 3d e8 2b 40 bd 0e 51 7d bc 3f f7 c7 3c
       0.04300394 -0.046916872 -0.0154612195 0.024409888
000210 73 9e 9f bc f8 b7 40 3b 5f 06 fa ba 92 07 36 bd
       -0.019484734 0.002940653 -0.0019075385 -0.044440813
000220 90 87 98 3c 3b c1 5a 3d d1 04 45 3d 7f b9 9f 3d
       0.018619329 0.053406935 0.048100296 0.077990524
000230 8f 3c 4a 3d ee c2 d9 3c 06 39 0e 3c 0b f4 5f 3c
       0.04937416 0.026582208 0.008680588 0.013669024
000240 f5 62 b0 bc e8 f1 7a bc cf a7 94 3d c7 a4 40 bd
       -0.021531561 -0.015316464 0.072585694 -0.047032144
000250 ac 2d 05 3d 18 02 7e ba 46 2b 2e 3d e6 37 47 3d
       0.03251426 -0.0009689643 0.042521738 0.048637293
000260 07 b2 87 bd 42 2a 42 3d 5a b0 9b 3b dc 74 32 3c
       -0.06625753 0.04740358 0.0047512474 0.010892119
000270 22 dd 80 bb 4f 92 79 bd 00 0c 31 3c af 57 24 3d
       -0.003932611 -0.060930546 0.010806084 0.040122684
000280 2c 84 92 bc b5 24 c8 3b db 2e cb 3c 48 ba 0e bc
       -0.01788529 0.0061078914 0.024802616 -0.008711405
000290 bc 51 a4 3c 8e 32 50 bd aa 71 15 bc 79 f4 09 3d
       0.020058505 -0.050829463 -0.009121338 0.033680413
0002a0 9d 45 65 3c 30 56 a7 bb 01 d8 d0 ba b7 67 17 3c
       0.013993648 -0.00510671 -0.0015933515 0.009241036
0002b0 85 30 e3 3c 6a dc 9c 3d ce 39 ae bc 60 8e 0e 3d
       0.027733097 0.07659228 -0.021267798 0.034803748
0002c0 49 cc 87 3b d6 6f 11 3c a3 64 7e 3d 7b f3 35 3b
       0.0041442257 0.008876761 0.062107693 0.0027763534
0002d0 27 4a 46 3c dc 26 10 bd ac b4 38 bc 92 51 7c 3d
       0.01210264 -0.03519331 -0.011273544 0.06160123
0002e0 49 7f 94 3c 13 b9 90 bd bc 7d 71 bc 4c bc b5 bd
       0.0181271 -0.0706655 -0.01473945 -0.088738054
0002f0 ec 3d a4 3c 01 94 fc bc 0f 88 02 bc 26 5e 18 3c
       0.020049058 -0.030832293 -0.007967009 0.0092997905
000300 79 78 56 bd bf 64 7b 3c df 21 e4 3b 7a d2 87 ba
       -0.052360985 0.015343844 0.0069620456 -0.001036241
000310 3b 67 de ba 40 60 68 3c ea b5 a7 3c 26 19 b8 bc
       -0.0016968021 0.014183104 0.020472486 -0.02247293
000320 8b 93 3c bd e6 5c f9 3c 5d d1 5b 3d b9 1e fc 3b
       -0.046039145 0.030439805 0.05366646 0.007694092
000330 72 6f b2 bd 77 c8 6b bd 24 0e cf bb 34 bc 40 bd
       -0.08712663 -0.057564225 -0.0063188244 -0.047054484
000340 88 fe 15 3d d2 b9 10 bd 5e 7f 11 bd 7c 84 58 3d
       0.036619693 -0.035333462 -0.035521857 0.052860722
000350 de c8 13 bd 26 45 54 3c f1 64 3a 3d 8d 62 11 3b
       -0.036080234 0.012955939 0.04550642 0.0022183985
000360 00 f4 96 bb 34 87 22 3b 58 c0 88 bb 1f 06 67 3d
       -0.004606724 0.0024799826 -0.00417332 0.056402322
000370 19 1e 01 bd f0 92 f0 3c fa fe 0d bc 47 df 7a bc
       -0.031522844 0.02936694 -0.008666748 -0.0153120225
000380 7f 7d 72 3c 3a d7 db bc 67 ac 62 bc 48 b2 85 bd
       0.014800428 -0.026836026 -0.013835049 -0.06528145
000390 90 5b 09 bd 5c 94 72 3d 3c 42 bc bc 03 28 cb bd
       -0.033534586 0.059223518 -0.022980802 -0.09919741
0003a0 0a fd 1c 3d ae 24 ce 3d 61 3d f0 bb 01 3c 1c bd
       0.038327254 0.1006559 -0.0073315357 -0.03814316
0003b0 46 fe 02 3d 50 dd f4 3c 63 4d 17 bd 8e 68 49 bd
       0.031980775 0.029890686 -0.036939036 -0.049171977
0003c0 d2 29 21 3d 17 30 a9 3c 04 c8 12 bd 1d ed 41 3d
       0.039346524 0.020652814 -0.03583528 0.04734527
0003d0 de 9a 6f 3d d8 27 d3 3d b1 6a 2e bd 03 4c cd 3b
       0.058497302 0.10310334 -0.042582218 0.006265165
0003e0 a6 b8 6c 3c 06 ea 36 3d ad 77 19 bd 4c 39 b3 bc
       0.0144483205 0.044656776 -0.037467647 -0.021877907
0003f0 85 6d 14 3d 7d ad 8d 3d d9 7d 0a 3d 76 fa dc 3b
       0.03623726 0.06917856 0.033811424 0.0067437245

linear.bias f4 [2]
000000 14 b3 56 3b 22 79 eb 3c
       0.0032760547 0.028744284
